{"class_name": "Model", "config": {"name": "model_1", "layers": [{"name": "input_1", "class_name": "InputLayer", "config": {"batch_input_shape": [null, null, null, 483], "dtype": "float32", "sparse": false, "name": "input_1"}, "inbound_nodes": []}, {"name": "instance_normalization_1", "class_name": "InstanceNormalization", "config": {"name": "instance_normalization_1", "trainable": true}, "inbound_nodes": [[["input_1", 0, 0, {}]]]}, {"name": "activation_1", "class_name": "Activation", "config": {"name": "activation_1", "trainable": true, "activation": "relu"}, "inbound_nodes": [[["instance_normalization_1", 0, 0, {}]]]}, {"name": "conv2d_1", "class_name": "Conv2D", "config": {"name": "conv2d_1", "trainable": true, "filters": 128, "kernel_size": [1, 1], "strides": [1, 1], "padding": "same", "data_format": "channels_last", "dilation_rate": [1, 1], "activation": "linear", "use_bias": true, "kernel_initializer": {"class_name": "VarianceScaling", "config": {"scale": 1.0, "mode": "fan_avg", "distribution": "uniform", "seed": null}}, "bias_initializer": {"class_name": "Zeros", "config": {}}, "kernel_regularizer": null, "bias_regularizer": null, "activity_regularizer": null, "kernel_constraint": null, "bias_constraint": null}, "inbound_nodes": [[["activation_1", 0, 0, {}]]]}, {"name": "conv2d_2", "class_name": "Conv2D", "config": {"name": "conv2d_2", "trainable": true, "filters": 4, "kernel_size": [1, 1], "strides": [1, 1], "padding": "same", "data_format": "channels_last", "dilation_rate": [1, 1], "activation": "linear", "use_bias": true, "kernel_initializer": {"class_name": "VarianceScaling", "config": {"scale": 1.0, "mode": "fan_avg", "distribution": "uniform", "seed": null}}, "bias_initializer": {"class_name": "Zeros", "config": {}}, "kernel_regularizer": null, "bias_regularizer": null, "activity_regularizer": null, "kernel_constraint": null, "bias_constraint": null}, "inbound_nodes": [[["conv2d_1", 0, 0, {}]]]}, {"name": "conv2d_3", "class_name": "Conv2D", "config": {"name": "conv2d_3", "trainable": true, "filters": 4, "kernel_size": [1, 1], "strides": [1, 1], "padding": "same", "data_format": "channels_last", "dilation_rate": [1, 1], "activation": "linear", "use_bias": true, "kernel_initializer": {"class_name": "VarianceScaling", "config": {"scale": 1.0, "mode": "fan_avg", "distribution": "uniform", "seed": null}}, "bias_initializer": {"class_name": "Zeros", "config": {}}, "kernel_regularizer": null, "bias_regularizer": null, "activity_regularizer": null, "kernel_constraint": null, "bias_constraint": null}, "inbound_nodes": [[["conv2d_1", 0, 0, {}]]]}, {"name": "activation_2", "class_name": "Activation", "config": {"name": "activation_2", "trainable": true, "activation": "relu"}, "inbound_nodes": [[["conv2d_2", 0, 0, {}]]]}, {"name": "activation_3", "class_name": "Activation", "config": {"name": "activation_3", "trainable": true, "activation": "relu"}, "inbound_nodes": [[["conv2d_3", 0, 0, {}]]]}, {"name": "conv2d_4", "class_name": "Conv2D", "config": {"name": "conv2d_4", "trainable": true, "filters": 4, "kernel_size": [1, 1], "strides": [1, 1], "padding": "same", "data_format": "channels_last", "dilation_rate": [1, 1], "activation": "linear", "use_bias": true, "kernel_initializer": {"class_name": "VarianceScaling", "config": {"scale": 1.0, "mode": "fan_avg", "distribution": "uniform", "seed": null}}, "bias_initializer": {"class_name": "Zeros", "config": {}}, "kernel_regularizer": null, "bias_regularizer": null, "activity_regularizer": null, "kernel_constraint": null, "bias_constraint": null}, "inbound_nodes": [[["conv2d_1", 0, 0, {}]]]}, {"name": "lambda_1", "class_name": "Lambda", "config": {"name": "lambda_1", "trainable": true, "function": ["4wEAAAAAAAAAAQAAAAUAAABTAAAAcxAAAAB0AGoBfABkBGQCZAONA1MAKQVO6QEAAABUKQLaBGF4\naXPaCGtlZXBkaW1z6f////8pAtoBS9oDbWF4KQHaAXipAHIIAAAA+kIvc2NyYXRjaC96Z2djOS9E\nTkNPTjQvYXJjaGl0ZWN0dXJlX2Rpc3RhbmNlL2xpYi9Nb2RlbF9jb25zdHJ1Y3QucHnaCDxsYW1i\nZGE+7wAAAPMAAAAA\n", null, null], "function_type": "lambda", "output_shape": null, "output_shape_type": "raw", "arguments": {}}, "inbound_nodes": [[["activation_2", 0, 0, {}]]]}, {"name": "lambda_2", "class_name": "Lambda", "config": {"name": "lambda_2", "trainable": true, "function": ["4wEAAAAAAAAAAQAAAAUAAABTAAAAcxAAAAB0AGoBfABkBGQCZAONA1MAKQVO6QEAAABUKQLaBGF4\naXPaCGtlZXBkaW1z6f////8pAtoBS9oDbWF4KQHaAXipAHIIAAAA+kIvc2NyYXRjaC96Z2djOS9E\nTkNPTjQvYXJjaGl0ZWN0dXJlX2Rpc3RhbmNlL2xpYi9Nb2RlbF9jb25zdHJ1Y3QucHnaCDxsYW1i\nZGE+7wAAAPMAAAAA\n", null, null], "function_type": "lambda", "output_shape": null, "output_shape_type": "raw", "arguments": {}}, "inbound_nodes": [[["activation_3", 0, 0, {}]]]}, {"name": "activation_4", "class_name": "Activation", "config": {"name": "activation_4", "trainable": true, "activation": "relu"}, "inbound_nodes": [[["conv2d_4", 0, 0, {}]]]}, {"name": "conv2d_5", "class_name": "Conv2D", "config": {"name": "conv2d_5", "trainable": true, "filters": 4, "kernel_size": [1, 1], "strides": [1, 1], "padding": "same", "data_format": "channels_last", "dilation_rate": [1, 1], "activation": "linear", "use_bias": true, "kernel_initializer": {"class_name": "VarianceScaling", "config": {"scale": 1.0, "mode": "fan_avg", "distribution": "uniform", "seed": null}}, "bias_initializer": {"class_name": "Zeros", "config": {}}, "kernel_regularizer": null, "bias_regularizer": null, "activity_regularizer": null, "kernel_constraint": null, "bias_constraint": null}, "inbound_nodes": [[["conv2d_1", 0, 0, {}]]]}, {"name": "concatenate_1", "class_name": "Concatenate", "config": {"name": "concatenate_1", "trainable": true, "axis": -1}, "inbound_nodes": [[["lambda_1", 0, 0, {}], ["lambda_2", 0, 0, {}]]]}, {"name": "lambda_3", "class_name": "Lambda", "config": {"name": "lambda_3", "trainable": true, "function": ["4wEAAAAAAAAAAQAAAAUAAABTAAAAcxAAAAB0AGoBfABkBGQCZAONA1MAKQVO6QEAAABUKQLaBGF4\naXPaCGtlZXBkaW1z6f////8pAtoBS9oDbWF4KQHaAXipAHIIAAAA+kIvc2NyYXRjaC96Z2djOS9E\nTkNPTjQvYXJjaGl0ZWN0dXJlX2Rpc3RhbmNlL2xpYi9Nb2RlbF9jb25zdHJ1Y3QucHnaCDxsYW1i\nZGE+7wAAAPMAAAAA\n", null, null], "function_type": "lambda", "output_shape": null, "output_shape_type": "raw", "arguments": {}}, "inbound_nodes": [[["activation_4", 0, 0, {}]]]}, {"name": "activation_5", "class_name": "Activation", "config": {"name": "activation_5", "trainable": true, "activation": "relu"}, "inbound_nodes": [[["conv2d_5", 0, 0, {}]]]}, {"name": "conv2d_6", "class_name": "Conv2D", "config": {"name": "conv2d_6", "trainable": true, "filters": 4, "kernel_size": [1, 1], "strides": [1, 1], "padding": "same", "data_format": "channels_last", "dilation_rate": [1, 1], "activation": "linear", "use_bias": true, "kernel_initializer": {"class_name": "VarianceScaling", "config": {"scale": 1.0, "mode": "fan_avg", "distribution": "uniform", "seed": null}}, "bias_initializer": {"class_name": "Zeros", "config": {}}, "kernel_regularizer": null, "bias_regularizer": null, "activity_regularizer": null, "kernel_constraint": null, "bias_constraint": null}, "inbound_nodes": [[["conv2d_1", 0, 0, {}]]]}, {"name": "concatenate_2", "class_name": "Concatenate", "config": {"name": "concatenate_2", "trainable": true, "axis": -1}, "inbound_nodes": [[["concatenate_1", 0, 0, {}], ["lambda_3", 0, 0, {}]]]}, {"name": "lambda_4", "class_name": "Lambda", "config": {"name": "lambda_4", "trainable": true, "function": ["4wEAAAAAAAAAAQAAAAUAAABTAAAAcxAAAAB0AGoBfABkBGQCZAONA1MAKQVO6QEAAABUKQLaBGF4\naXPaCGtlZXBkaW1z6f////8pAtoBS9oDbWF4KQHaAXipAHIIAAAA+kIvc2NyYXRjaC96Z2djOS9E\nTkNPTjQvYXJjaGl0ZWN0dXJlX2Rpc3RhbmNlL2xpYi9Nb2RlbF9jb25zdHJ1Y3QucHnaCDxsYW1i\nZGE+7wAAAPMAAAAA\n", null, null], "function_type": "lambda", "output_shape": null, "output_shape_type": "raw", "arguments": {}}, "inbound_nodes": [[["activation_5", 0, 0, {}]]]}, {"name": "activation_6", "class_name": "Activation", "config": {"name": "activation_6", "trainable": true, "activation": "relu"}, "inbound_nodes": [[["conv2d_6", 0, 0, {}]]]}, {"name": "conv2d_7", "class_name": "Conv2D", "config": {"name": "conv2d_7", "trainable": true, "filters": 4, "kernel_size": [1, 1], "strides": [1, 1], "padding": "same", "data_format": "channels_last", "dilation_rate": [1, 1], "activation": "linear", "use_bias": true, "kernel_initializer": {"class_name": "VarianceScaling", "config": {"scale": 1.0, "mode": "fan_avg", "distribution": "uniform", "seed": null}}, "bias_initializer": {"class_name": "Zeros", "config": {}}, "kernel_regularizer": null, "bias_regularizer": null, "activity_regularizer": null, "kernel_constraint": null, "bias_constraint": null}, "inbound_nodes": [[["conv2d_1", 0, 0, {}]]]}, {"name": "concatenate_3", "class_name": "Concatenate", "config": {"name": "concatenate_3", "trainable": true, "axis": -1}, "inbound_nodes": [[["concatenate_2", 0, 0, {}], ["lambda_4", 0, 0, {}]]]}, {"name": "lambda_5", "class_name": "Lambda", "config": {"name": "lambda_5", "trainable": true, "function": ["4wEAAAAAAAAAAQAAAAUAAABTAAAAcxAAAAB0AGoBfABkBGQCZAONA1MAKQVO6QEAAABUKQLaBGF4\naXPaCGtlZXBkaW1z6f////8pAtoBS9oDbWF4KQHaAXipAHIIAAAA+kIvc2NyYXRjaC96Z2djOS9E\nTkNPTjQvYXJjaGl0ZWN0dXJlX2Rpc3RhbmNlL2xpYi9Nb2RlbF9jb25zdHJ1Y3QucHnaCDxsYW1i\nZGE+7wAAAPMAAAAA\n", null, null], "function_type": "lambda", "output_shape": null, "output_shape_type": "raw", "arguments": {}}, "inbound_nodes": [[["activation_6", 0, 0, {}]]]}, {"name": "activation_7", "class_name": "Activation", "config": {"name": "activation_7", "trainable": true, "activation": "relu"}, "inbound_nodes": [[["conv2d_7", 0, 0, {}]]]}, {"name": "conv2d_8", "class_name": "Conv2D", "config": {"name": "conv2d_8", "trainable": true, "filters": 4, "kernel_size": [1, 1], "strides": [1, 1], "padding": "same", "data_format": "channels_last", "dilation_rate": [1, 1], "activation": "linear", "use_bias": true, "kernel_initializer": {"class_name": "VarianceScaling", "config": {"scale": 1.0, "mode": "fan_avg", "distribution": "uniform", "seed": null}}, "bias_initializer": {"class_name": "Zeros", "config": {}}, "kernel_regularizer": null, "bias_regularizer": null, "activity_regularizer": null, "kernel_constraint": null, "bias_constraint": null}, "inbound_nodes": [[["conv2d_1", 0, 0, {}]]]}, {"name": "concatenate_4", "class_name": "Concatenate", "config": {"name": "concatenate_4", "trainable": true, "axis": -1}, "inbound_nodes": [[["concatenate_3", 0, 0, {}], ["lambda_5", 0, 0, {}]]]}, {"name": "lambda_6", "class_name": "Lambda", "config": {"name": "lambda_6", "trainable": true, "function": ["4wEAAAAAAAAAAQAAAAUAAABTAAAAcxAAAAB0AGoBfABkBGQCZAONA1MAKQVO6QEAAABUKQLaBGF4\naXPaCGtlZXBkaW1z6f////8pAtoBS9oDbWF4KQHaAXipAHIIAAAA+kIvc2NyYXRjaC96Z2djOS9E\nTkNPTjQvYXJjaGl0ZWN0dXJlX2Rpc3RhbmNlL2xpYi9Nb2RlbF9jb25zdHJ1Y3QucHnaCDxsYW1i\nZGE+7wAAAPMAAAAA\n", null, null], "function_type": "lambda", "output_shape": null, "output_shape_type": "raw", "arguments": {}}, "inbound_nodes": [[["activation_7", 0, 0, {}]]]}, {"name": "activation_8", "class_name": "Activation", "config": {"name": "activation_8", "trainable": true, "activation": "relu"}, "inbound_nodes": [[["conv2d_8", 0, 0, {}]]]}, {"name": "conv2d_9", "class_name": "Conv2D", "config": {"name": "conv2d_9", "trainable": true, "filters": 4, "kernel_size": [1, 1], "strides": [1, 1], "padding": "same", "data_format": "channels_last", "dilation_rate": [1, 1], "activation": "linear", "use_bias": true, "kernel_initializer": {"class_name": "VarianceScaling", "config": {"scale": 1.0, "mode": "fan_avg", "distribution": "uniform", "seed": null}}, "bias_initializer": {"class_name": "Zeros", "config": {}}, "kernel_regularizer": null, "bias_regularizer": null, "activity_regularizer": null, "kernel_constraint": null, "bias_constraint": null}, "inbound_nodes": [[["conv2d_1", 0, 0, {}]]]}, {"name": "concatenate_5", "class_name": "Concatenate", "config": {"name": "concatenate_5", "trainable": true, "axis": -1}, "inbound_nodes": [[["concatenate_4", 0, 0, {}], ["lambda_6", 0, 0, {}]]]}, {"name": "lambda_7", "class_name": "Lambda", "config": {"name": "lambda_7", "trainable": true, "function": ["4wEAAAAAAAAAAQAAAAUAAABTAAAAcxAAAAB0AGoBfABkBGQCZAONA1MAKQVO6QEAAABUKQLaBGF4\naXPaCGtlZXBkaW1z6f////8pAtoBS9oDbWF4KQHaAXipAHIIAAAA+kIvc2NyYXRjaC96Z2djOS9E\nTkNPTjQvYXJjaGl0ZWN0dXJlX2Rpc3RhbmNlL2xpYi9Nb2RlbF9jb25zdHJ1Y3QucHnaCDxsYW1i\nZGE+7wAAAPMAAAAA\n", null, null], "function_type": "lambda", "output_shape": null, "output_shape_type": "raw", "arguments": {}}, "inbound_nodes": [[["activation_8", 0, 0, {}]]]}, {"name": "activation_9", "class_name": "Activation", "config": {"name": "activation_9", "trainable": true, "activation": "relu"}, "inbound_nodes": [[["conv2d_9", 0, 0, {}]]]}, {"name": "conv2d_10", "class_name": "Conv2D", "config": {"name": "conv2d_10", "trainable": true, "filters": 4, "kernel_size": [1, 1], "strides": [1, 1], "padding": "same", "data_format": "channels_last", "dilation_rate": [1, 1], "activation": "linear", "use_bias": true, "kernel_initializer": {"class_name": "VarianceScaling", "config": {"scale": 1.0, "mode": "fan_avg", "distribution": "uniform", "seed": null}}, "bias_initializer": {"class_name": "Zeros", "config": {}}, "kernel_regularizer": null, "bias_regularizer": null, "activity_regularizer": null, "kernel_constraint": null, "bias_constraint": null}, "inbound_nodes": [[["conv2d_1", 0, 0, {}]]]}, {"name": "concatenate_6", "class_name": "Concatenate", "config": {"name": "concatenate_6", "trainable": true, "axis": -1}, "inbound_nodes": [[["concatenate_5", 0, 0, {}], ["lambda_7", 0, 0, {}]]]}, {"name": "lambda_8", "class_name": "Lambda", "config": {"name": "lambda_8", "trainable": true, "function": ["4wEAAAAAAAAAAQAAAAUAAABTAAAAcxAAAAB0AGoBfABkBGQCZAONA1MAKQVO6QEAAABUKQLaBGF4\naXPaCGtlZXBkaW1z6f////8pAtoBS9oDbWF4KQHaAXipAHIIAAAA+kIvc2NyYXRjaC96Z2djOS9E\nTkNPTjQvYXJjaGl0ZWN0dXJlX2Rpc3RhbmNlL2xpYi9Nb2RlbF9jb25zdHJ1Y3QucHnaCDxsYW1i\nZGE+7wAAAPMAAAAA\n", null, null], "function_type": "lambda", "output_shape": null, "output_shape_type": "raw", "arguments": {}}, "inbound_nodes": [[["activation_9", 0, 0, {}]]]}, {"name": "activation_10", "class_name": "Activation", "config": {"name": "activation_10", "trainable": true, "activation": "relu"}, "inbound_nodes": [[["conv2d_10", 0, 0, {}]]]}, {"name": "conv2d_11", "class_name": "Conv2D", "config": {"name": "conv2d_11", "trainable": true, "filters": 4, "kernel_size": [1, 1], "strides": [1, 1], "padding": "same", "data_format": "channels_last", "dilation_rate": [1, 1], "activation": "linear", "use_bias": true, "kernel_initializer": {"class_name": "VarianceScaling", "config": {"scale": 1.0, "mode": "fan_avg", "distribution": "uniform", "seed": null}}, "bias_initializer": {"class_name": "Zeros", "config": {}}, "kernel_regularizer": null, "bias_regularizer": null, "activity_regularizer": null, "kernel_constraint": null, "bias_constraint": null}, "inbound_nodes": [[["conv2d_1", 0, 0, {}]]]}, {"name": "concatenate_7", "class_name": "Concatenate", "config": {"name": "concatenate_7", "trainable": true, "axis": -1}, "inbound_nodes": [[["concatenate_6", 0, 0, {}], ["lambda_8", 0, 0, {}]]]}, {"name": "lambda_9", "class_name": "Lambda", "config": {"name": "lambda_9", "trainable": true, "function": ["4wEAAAAAAAAAAQAAAAUAAABTAAAAcxAAAAB0AGoBfABkBGQCZAONA1MAKQVO6QEAAABUKQLaBGF4\naXPaCGtlZXBkaW1z6f////8pAtoBS9oDbWF4KQHaAXipAHIIAAAA+kIvc2NyYXRjaC96Z2djOS9E\nTkNPTjQvYXJjaGl0ZWN0dXJlX2Rpc3RhbmNlL2xpYi9Nb2RlbF9jb25zdHJ1Y3QucHnaCDxsYW1i\nZGE+7wAAAPMAAAAA\n", null, null], "function_type": "lambda", "output_shape": null, "output_shape_type": "raw", "arguments": {}}, "inbound_nodes": [[["activation_10", 0, 0, {}]]]}, {"name": "activation_11", "class_name": "Activation", "config": {"name": "activation_11", "trainable": true, "activation": "relu"}, "inbound_nodes": [[["conv2d_11", 0, 0, {}]]]}, {"name": "conv2d_12", "class_name": "Conv2D", "config": {"name": "conv2d_12", "trainable": true, "filters": 4, "kernel_size": [1, 1], "strides": [1, 1], "padding": "same", "data_format": "channels_last", "dilation_rate": [1, 1], "activation": "linear", "use_bias": true, "kernel_initializer": {"class_name": "VarianceScaling", "config": {"scale": 1.0, "mode": "fan_avg", "distribution": "uniform", "seed": null}}, "bias_initializer": {"class_name": "Zeros", "config": {}}, "kernel_regularizer": null, "bias_regularizer": null, "activity_regularizer": null, "kernel_constraint": null, "bias_constraint": null}, "inbound_nodes": [[["conv2d_1", 0, 0, {}]]]}, {"name": "concatenate_8", "class_name": "Concatenate", "config": {"name": "concatenate_8", "trainable": true, "axis": -1}, "inbound_nodes": [[["concatenate_7", 0, 0, {}], ["lambda_9", 0, 0, {}]]]}, {"name": "lambda_10", "class_name": "Lambda", "config": {"name": "lambda_10", "trainable": true, "function": ["4wEAAAAAAAAAAQAAAAUAAABTAAAAcxAAAAB0AGoBfABkBGQCZAONA1MAKQVO6QEAAABUKQLaBGF4\naXPaCGtlZXBkaW1z6f////8pAtoBS9oDbWF4KQHaAXipAHIIAAAA+kIvc2NyYXRjaC96Z2djOS9E\nTkNPTjQvYXJjaGl0ZWN0dXJlX2Rpc3RhbmNlL2xpYi9Nb2RlbF9jb25zdHJ1Y3QucHnaCDxsYW1i\nZGE+7wAAAPMAAAAA\n", null, null], "function_type": "lambda", "output_shape": null, "output_shape_type": "raw", "arguments": {}}, "inbound_nodes": [[["activation_11", 0, 0, {}]]]}, {"name": "activation_12", "class_name": "Activation", "config": {"name": "activation_12", "trainable": true, "activation": "relu"}, "inbound_nodes": [[["conv2d_12", 0, 0, {}]]]}, {"name": "conv2d_13", "class_name": "Conv2D", "config": {"name": "conv2d_13", "trainable": true, "filters": 4, "kernel_size": [1, 1], "strides": [1, 1], "padding": "same", "data_format": "channels_last", "dilation_rate": [1, 1], "activation": "linear", "use_bias": true, "kernel_initializer": {"class_name": "VarianceScaling", "config": {"scale": 1.0, "mode": "fan_avg", "distribution": "uniform", "seed": null}}, "bias_initializer": {"class_name": "Zeros", "config": {}}, "kernel_regularizer": null, "bias_regularizer": null, "activity_regularizer": null, "kernel_constraint": null, "bias_constraint": null}, "inbound_nodes": [[["conv2d_1", 0, 0, {}]]]}, {"name": "concatenate_9", "class_name": "Concatenate", "config": {"name": "concatenate_9", "trainable": true, "axis": -1}, "inbound_nodes": [[["concatenate_8", 0, 0, {}], ["lambda_10", 0, 0, {}]]]}, {"name": "lambda_11", "class_name": "Lambda", "config": {"name": "lambda_11", "trainable": true, "function": ["4wEAAAAAAAAAAQAAAAUAAABTAAAAcxAAAAB0AGoBfABkBGQCZAONA1MAKQVO6QEAAABUKQLaBGF4\naXPaCGtlZXBkaW1z6f////8pAtoBS9oDbWF4KQHaAXipAHIIAAAA+kIvc2NyYXRjaC96Z2djOS9E\nTkNPTjQvYXJjaGl0ZWN0dXJlX2Rpc3RhbmNlL2xpYi9Nb2RlbF9jb25zdHJ1Y3QucHnaCDxsYW1i\nZGE+7wAAAPMAAAAA\n", null, null], "function_type": "lambda", "output_shape": null, "output_shape_type": "raw", "arguments": {}}, "inbound_nodes": [[["activation_12", 0, 0, {}]]]}, {"name": "activation_13", "class_name": "Activation", "config": {"name": "activation_13", "trainable": true, "activation": "relu"}, "inbound_nodes": [[["conv2d_13", 0, 0, {}]]]}, {"name": "conv2d_14", "class_name": "Conv2D", "config": {"name": "conv2d_14", "trainable": true, "filters": 4, "kernel_size": [1, 1], "strides": [1, 1], "padding": "same", "data_format": "channels_last", "dilation_rate": [1, 1], "activation": "linear", "use_bias": true, "kernel_initializer": {"class_name": "VarianceScaling", "config": {"scale": 1.0, "mode": "fan_avg", "distribution": "uniform", "seed": null}}, "bias_initializer": {"class_name": "Zeros", "config": {}}, "kernel_regularizer": null, "bias_regularizer": null, "activity_regularizer": null, "kernel_constraint": null, "bias_constraint": null}, "inbound_nodes": [[["conv2d_1", 0, 0, {}]]]}, {"name": "concatenate_10", "class_name": "Concatenate", "config": {"name": "concatenate_10", "trainable": true, "axis": -1}, "inbound_nodes": [[["concatenate_9", 0, 0, {}], ["lambda_11", 0, 0, {}]]]}, {"name": "lambda_12", "class_name": "Lambda", "config": {"name": "lambda_12", "trainable": true, "function": ["4wEAAAAAAAAAAQAAAAUAAABTAAAAcxAAAAB0AGoBfABkBGQCZAONA1MAKQVO6QEAAABUKQLaBGF4\naXPaCGtlZXBkaW1z6f////8pAtoBS9oDbWF4KQHaAXipAHIIAAAA+kIvc2NyYXRjaC96Z2djOS9E\nTkNPTjQvYXJjaGl0ZWN0dXJlX2Rpc3RhbmNlL2xpYi9Nb2RlbF9jb25zdHJ1Y3QucHnaCDxsYW1i\nZGE+7wAAAPMAAAAA\n", null, null], "function_type": "lambda", "output_shape": null, "output_shape_type": "raw", "arguments": {}}, "inbound_nodes": [[["activation_13", 0, 0, {}]]]}, {"name": "activation_14", "class_name": "Activation", "config": {"name": "activation_14", "trainable": true, "activation": "relu"}, "inbound_nodes": [[["conv2d_14", 0, 0, {}]]]}, {"name": "conv2d_15", "class_name": "Conv2D", "config": {"name": "conv2d_15", "trainable": true, "filters": 4, "kernel_size": [1, 1], "strides": [1, 1], "padding": "same", "data_format": "channels_last", "dilation_rate": [1, 1], "activation": "linear", "use_bias": true, "kernel_initializer": {"class_name": "VarianceScaling", "config": {"scale": 1.0, "mode": "fan_avg", "distribution": "uniform", "seed": null}}, "bias_initializer": {"class_name": "Zeros", "config": {}}, "kernel_regularizer": null, "bias_regularizer": null, "activity_regularizer": null, "kernel_constraint": null, "bias_constraint": null}, "inbound_nodes": [[["conv2d_1", 0, 0, {}]]]}, {"name": "concatenate_11", "class_name": "Concatenate", "config": {"name": "concatenate_11", "trainable": true, "axis": -1}, "inbound_nodes": [[["concatenate_10", 0, 0, {}], ["lambda_12", 0, 0, {}]]]}, {"name": "lambda_13", "class_name": "Lambda", "config": {"name": "lambda_13", "trainable": true, "function": ["4wEAAAAAAAAAAQAAAAUAAABTAAAAcxAAAAB0AGoBfABkBGQCZAONA1MAKQVO6QEAAABUKQLaBGF4\naXPaCGtlZXBkaW1z6f////8pAtoBS9oDbWF4KQHaAXipAHIIAAAA+kIvc2NyYXRjaC96Z2djOS9E\nTkNPTjQvYXJjaGl0ZWN0dXJlX2Rpc3RhbmNlL2xpYi9Nb2RlbF9jb25zdHJ1Y3QucHnaCDxsYW1i\nZGE+7wAAAPMAAAAA\n", null, null], "function_type": "lambda", "output_shape": null, "output_shape_type": "raw", "arguments": {}}, "inbound_nodes": [[["activation_14", 0, 0, {}]]]}, {"name": "activation_15", "class_name": "Activation", "config": {"name": "activation_15", "trainable": true, "activation": "relu"}, "inbound_nodes": [[["conv2d_15", 0, 0, {}]]]}, {"name": "conv2d_16", "class_name": "Conv2D", "config": {"name": "conv2d_16", "trainable": true, "filters": 4, "kernel_size": [1, 1], "strides": [1, 1], "padding": "same", "data_format": "channels_last", "dilation_rate": [1, 1], "activation": "linear", "use_bias": true, "kernel_initializer": {"class_name": "VarianceScaling", "config": {"scale": 1.0, "mode": "fan_avg", "distribution": "uniform", "seed": null}}, "bias_initializer": {"class_name": "Zeros", "config": {}}, "kernel_regularizer": null, "bias_regularizer": null, "activity_regularizer": null, "kernel_constraint": null, "bias_constraint": null}, "inbound_nodes": [[["conv2d_1", 0, 0, {}]]]}, {"name": "concatenate_12", "class_name": "Concatenate", "config": {"name": "concatenate_12", "trainable": true, "axis": -1}, "inbound_nodes": [[["concatenate_11", 0, 0, {}], ["lambda_13", 0, 0, {}]]]}, {"name": "lambda_14", "class_name": "Lambda", "config": {"name": "lambda_14", "trainable": true, "function": ["4wEAAAAAAAAAAQAAAAUAAABTAAAAcxAAAAB0AGoBfABkBGQCZAONA1MAKQVO6QEAAABUKQLaBGF4\naXPaCGtlZXBkaW1z6f////8pAtoBS9oDbWF4KQHaAXipAHIIAAAA+kIvc2NyYXRjaC96Z2djOS9E\nTkNPTjQvYXJjaGl0ZWN0dXJlX2Rpc3RhbmNlL2xpYi9Nb2RlbF9jb25zdHJ1Y3QucHnaCDxsYW1i\nZGE+7wAAAPMAAAAA\n", null, null], "function_type": "lambda", "output_shape": null, "output_shape_type": "raw", "arguments": {}}, "inbound_nodes": [[["activation_15", 0, 0, {}]]]}, {"name": "activation_16", "class_name": "Activation", "config": {"name": "activation_16", "trainable": true, "activation": "relu"}, "inbound_nodes": [[["conv2d_16", 0, 0, {}]]]}, {"name": "conv2d_17", "class_name": "Conv2D", "config": {"name": "conv2d_17", "trainable": true, "filters": 4, "kernel_size": [1, 1], "strides": [1, 1], "padding": "same", "data_format": "channels_last", "dilation_rate": [1, 1], "activation": "linear", "use_bias": true, "kernel_initializer": {"class_name": "VarianceScaling", "config": {"scale": 1.0, "mode": "fan_avg", "distribution": "uniform", "seed": null}}, "bias_initializer": {"class_name": "Zeros", "config": {}}, "kernel_regularizer": null, "bias_regularizer": null, "activity_regularizer": null, "kernel_constraint": null, "bias_constraint": null}, "inbound_nodes": [[["conv2d_1", 0, 0, {}]]]}, {"name": "concatenate_13", "class_name": "Concatenate", "config": {"name": "concatenate_13", "trainable": true, "axis": -1}, "inbound_nodes": [[["concatenate_12", 0, 0, {}], ["lambda_14", 0, 0, {}]]]}, {"name": "lambda_15", "class_name": "Lambda", "config": {"name": "lambda_15", "trainable": true, "function": ["4wEAAAAAAAAAAQAAAAUAAABTAAAAcxAAAAB0AGoBfABkBGQCZAONA1MAKQVO6QEAAABUKQLaBGF4\naXPaCGtlZXBkaW1z6f////8pAtoBS9oDbWF4KQHaAXipAHIIAAAA+kIvc2NyYXRjaC96Z2djOS9E\nTkNPTjQvYXJjaGl0ZWN0dXJlX2Rpc3RhbmNlL2xpYi9Nb2RlbF9jb25zdHJ1Y3QucHnaCDxsYW1i\nZGE+7wAAAPMAAAAA\n", null, null], "function_type": "lambda", "output_shape": null, "output_shape_type": "raw", "arguments": {}}, "inbound_nodes": [[["activation_16", 0, 0, {}]]]}, {"name": "activation_17", "class_name": "Activation", "config": {"name": "activation_17", "trainable": true, "activation": "relu"}, "inbound_nodes": [[["conv2d_17", 0, 0, {}]]]}, {"name": "conv2d_18", "class_name": "Conv2D", "config": {"name": "conv2d_18", "trainable": true, "filters": 4, "kernel_size": [1, 1], "strides": [1, 1], "padding": "same", "data_format": "channels_last", "dilation_rate": [1, 1], "activation": "linear", "use_bias": true, "kernel_initializer": {"class_name": "VarianceScaling", "config": {"scale": 1.0, "mode": "fan_avg", "distribution": "uniform", "seed": null}}, "bias_initializer": {"class_name": "Zeros", "config": {}}, "kernel_regularizer": null, "bias_regularizer": null, "activity_regularizer": null, "kernel_constraint": null, "bias_constraint": null}, "inbound_nodes": [[["conv2d_1", 0, 0, {}]]]}, {"name": "concatenate_14", "class_name": "Concatenate", "config": {"name": "concatenate_14", "trainable": true, "axis": -1}, "inbound_nodes": [[["concatenate_13", 0, 0, {}], ["lambda_15", 0, 0, {}]]]}, {"name": "lambda_16", "class_name": "Lambda", "config": {"name": "lambda_16", "trainable": true, "function": ["4wEAAAAAAAAAAQAAAAUAAABTAAAAcxAAAAB0AGoBfABkBGQCZAONA1MAKQVO6QEAAABUKQLaBGF4\naXPaCGtlZXBkaW1z6f////8pAtoBS9oDbWF4KQHaAXipAHIIAAAA+kIvc2NyYXRjaC96Z2djOS9E\nTkNPTjQvYXJjaGl0ZWN0dXJlX2Rpc3RhbmNlL2xpYi9Nb2RlbF9jb25zdHJ1Y3QucHnaCDxsYW1i\nZGE+7wAAAPMAAAAA\n", null, null], "function_type": "lambda", "output_shape": null, "output_shape_type": "raw", "arguments": {}}, "inbound_nodes": [[["activation_17", 0, 0, {}]]]}, {"name": "activation_18", "class_name": "Activation", "config": {"name": "activation_18", "trainable": true, "activation": "relu"}, "inbound_nodes": [[["conv2d_18", 0, 0, {}]]]}, {"name": "conv2d_19", "class_name": "Conv2D", "config": {"name": "conv2d_19", "trainable": true, "filters": 4, "kernel_size": [1, 1], "strides": [1, 1], "padding": "same", "data_format": "channels_last", "dilation_rate": [1, 1], "activation": "linear", "use_bias": true, "kernel_initializer": {"class_name": "VarianceScaling", "config": {"scale": 1.0, "mode": "fan_avg", "distribution": "uniform", "seed": null}}, "bias_initializer": {"class_name": "Zeros", "config": {}}, "kernel_regularizer": null, "bias_regularizer": null, "activity_regularizer": null, "kernel_constraint": null, "bias_constraint": null}, "inbound_nodes": [[["conv2d_1", 0, 0, {}]]]}, {"name": "concatenate_15", "class_name": "Concatenate", "config": {"name": "concatenate_15", "trainable": true, "axis": -1}, "inbound_nodes": [[["concatenate_14", 0, 0, {}], ["lambda_16", 0, 0, {}]]]}, {"name": "lambda_17", "class_name": "Lambda", "config": {"name": "lambda_17", "trainable": true, "function": ["4wEAAAAAAAAAAQAAAAUAAABTAAAAcxAAAAB0AGoBfABkBGQCZAONA1MAKQVO6QEAAABUKQLaBGF4\naXPaCGtlZXBkaW1z6f////8pAtoBS9oDbWF4KQHaAXipAHIIAAAA+kIvc2NyYXRjaC96Z2djOS9E\nTkNPTjQvYXJjaGl0ZWN0dXJlX2Rpc3RhbmNlL2xpYi9Nb2RlbF9jb25zdHJ1Y3QucHnaCDxsYW1i\nZGE+7wAAAPMAAAAA\n", null, null], "function_type": "lambda", "output_shape": null, "output_shape_type": "raw", "arguments": {}}, "inbound_nodes": [[["activation_18", 0, 0, {}]]]}, {"name": "activation_19", "class_name": "Activation", "config": {"name": "activation_19", "trainable": true, "activation": "relu"}, "inbound_nodes": [[["conv2d_19", 0, 0, {}]]]}, {"name": "conv2d_20", "class_name": "Conv2D", "config": {"name": "conv2d_20", "trainable": true, "filters": 4, "kernel_size": [1, 1], "strides": [1, 1], "padding": "same", "data_format": "channels_last", "dilation_rate": [1, 1], "activation": "linear", "use_bias": true, "kernel_initializer": {"class_name": "VarianceScaling", "config": {"scale": 1.0, "mode": "fan_avg", "distribution": "uniform", "seed": null}}, "bias_initializer": {"class_name": "Zeros", "config": {}}, "kernel_regularizer": null, "bias_regularizer": null, "activity_regularizer": null, "kernel_constraint": null, "bias_constraint": null}, "inbound_nodes": [[["conv2d_1", 0, 0, {}]]]}, {"name": "concatenate_16", "class_name": "Concatenate", "config": {"name": "concatenate_16", "trainable": true, "axis": -1}, "inbound_nodes": [[["concatenate_15", 0, 0, {}], ["lambda_17", 0, 0, {}]]]}, {"name": "lambda_18", "class_name": "Lambda", "config": {"name": "lambda_18", "trainable": true, "function": ["4wEAAAAAAAAAAQAAAAUAAABTAAAAcxAAAAB0AGoBfABkBGQCZAONA1MAKQVO6QEAAABUKQLaBGF4\naXPaCGtlZXBkaW1z6f////8pAtoBS9oDbWF4KQHaAXipAHIIAAAA+kIvc2NyYXRjaC96Z2djOS9E\nTkNPTjQvYXJjaGl0ZWN0dXJlX2Rpc3RhbmNlL2xpYi9Nb2RlbF9jb25zdHJ1Y3QucHnaCDxsYW1i\nZGE+7wAAAPMAAAAA\n", null, null], "function_type": "lambda", "output_shape": null, "output_shape_type": "raw", "arguments": {}}, "inbound_nodes": [[["activation_19", 0, 0, {}]]]}, {"name": "activation_20", "class_name": "Activation", "config": {"name": "activation_20", "trainable": true, "activation": "relu"}, "inbound_nodes": [[["conv2d_20", 0, 0, {}]]]}, {"name": "conv2d_21", "class_name": "Conv2D", "config": {"name": "conv2d_21", "trainable": true, "filters": 4, "kernel_size": [1, 1], "strides": [1, 1], "padding": "same", "data_format": "channels_last", "dilation_rate": [1, 1], "activation": "linear", "use_bias": true, "kernel_initializer": {"class_name": "VarianceScaling", "config": {"scale": 1.0, "mode": "fan_avg", "distribution": "uniform", "seed": null}}, "bias_initializer": {"class_name": "Zeros", "config": {}}, "kernel_regularizer": null, "bias_regularizer": null, "activity_regularizer": null, "kernel_constraint": null, "bias_constraint": null}, "inbound_nodes": [[["conv2d_1", 0, 0, {}]]]}, {"name": "concatenate_17", "class_name": "Concatenate", "config": {"name": "concatenate_17", "trainable": true, "axis": -1}, "inbound_nodes": [[["concatenate_16", 0, 0, {}], ["lambda_18", 0, 0, {}]]]}, {"name": "lambda_19", "class_name": "Lambda", "config": {"name": "lambda_19", "trainable": true, "function": ["4wEAAAAAAAAAAQAAAAUAAABTAAAAcxAAAAB0AGoBfABkBGQCZAONA1MAKQVO6QEAAABUKQLaBGF4\naXPaCGtlZXBkaW1z6f////8pAtoBS9oDbWF4KQHaAXipAHIIAAAA+kIvc2NyYXRjaC96Z2djOS9E\nTkNPTjQvYXJjaGl0ZWN0dXJlX2Rpc3RhbmNlL2xpYi9Nb2RlbF9jb25zdHJ1Y3QucHnaCDxsYW1i\nZGE+7wAAAPMAAAAA\n", null, null], "function_type": "lambda", "output_shape": null, "output_shape_type": "raw", "arguments": {}}, "inbound_nodes": [[["activation_20", 0, 0, {}]]]}, {"name": "activation_21", "class_name": "Activation", "config": {"name": "activation_21", "trainable": true, "activation": "relu"}, "inbound_nodes": [[["conv2d_21", 0, 0, {}]]]}, {"name": "conv2d_22", "class_name": "Conv2D", "config": {"name": "conv2d_22", "trainable": true, "filters": 4, "kernel_size": [1, 1], "strides": [1, 1], "padding": "same", "data_format": "channels_last", "dilation_rate": [1, 1], "activation": "linear", "use_bias": true, "kernel_initializer": {"class_name": "VarianceScaling", "config": {"scale": 1.0, "mode": "fan_avg", "distribution": "uniform", "seed": null}}, "bias_initializer": {"class_name": "Zeros", "config": {}}, "kernel_regularizer": null, "bias_regularizer": null, "activity_regularizer": null, "kernel_constraint": null, "bias_constraint": null}, "inbound_nodes": [[["conv2d_1", 0, 0, {}]]]}, {"name": "concatenate_18", "class_name": "Concatenate", "config": {"name": "concatenate_18", "trainable": true, "axis": -1}, "inbound_nodes": [[["concatenate_17", 0, 0, {}], ["lambda_19", 0, 0, {}]]]}, {"name": "lambda_20", "class_name": "Lambda", "config": {"name": "lambda_20", "trainable": true, "function": ["4wEAAAAAAAAAAQAAAAUAAABTAAAAcxAAAAB0AGoBfABkBGQCZAONA1MAKQVO6QEAAABUKQLaBGF4\naXPaCGtlZXBkaW1z6f////8pAtoBS9oDbWF4KQHaAXipAHIIAAAA+kIvc2NyYXRjaC96Z2djOS9E\nTkNPTjQvYXJjaGl0ZWN0dXJlX2Rpc3RhbmNlL2xpYi9Nb2RlbF9jb25zdHJ1Y3QucHnaCDxsYW1i\nZGE+7wAAAPMAAAAA\n", null, null], "function_type": "lambda", "output_shape": null, "output_shape_type": "raw", "arguments": {}}, "inbound_nodes": [[["activation_21", 0, 0, {}]]]}, {"name": "activation_22", "class_name": "Activation", "config": {"name": "activation_22", "trainable": true, "activation": "relu"}, "inbound_nodes": [[["conv2d_22", 0, 0, {}]]]}, {"name": "conv2d_23", "class_name": "Conv2D", "config": {"name": "conv2d_23", "trainable": true, "filters": 4, "kernel_size": [1, 1], "strides": [1, 1], "padding": "same", "data_format": "channels_last", "dilation_rate": [1, 1], "activation": "linear", "use_bias": true, "kernel_initializer": {"class_name": "VarianceScaling", "config": {"scale": 1.0, "mode": "fan_avg", "distribution": "uniform", "seed": null}}, "bias_initializer": {"class_name": "Zeros", "config": {}}, "kernel_regularizer": null, "bias_regularizer": null, "activity_regularizer": null, "kernel_constraint": null, "bias_constraint": null}, "inbound_nodes": [[["conv2d_1", 0, 0, {}]]]}, {"name": "concatenate_19", "class_name": "Concatenate", "config": {"name": "concatenate_19", "trainable": true, "axis": -1}, "inbound_nodes": [[["concatenate_18", 0, 0, {}], ["lambda_20", 0, 0, {}]]]}, {"name": "lambda_21", "class_name": "Lambda", "config": {"name": "lambda_21", "trainable": true, "function": ["4wEAAAAAAAAAAQAAAAUAAABTAAAAcxAAAAB0AGoBfABkBGQCZAONA1MAKQVO6QEAAABUKQLaBGF4\naXPaCGtlZXBkaW1z6f////8pAtoBS9oDbWF4KQHaAXipAHIIAAAA+kIvc2NyYXRjaC96Z2djOS9E\nTkNPTjQvYXJjaGl0ZWN0dXJlX2Rpc3RhbmNlL2xpYi9Nb2RlbF9jb25zdHJ1Y3QucHnaCDxsYW1i\nZGE+7wAAAPMAAAAA\n", null, null], "function_type": "lambda", "output_shape": null, "output_shape_type": "raw", "arguments": {}}, "inbound_nodes": [[["activation_22", 0, 0, {}]]]}, {"name": "activation_23", "class_name": "Activation", "config": {"name": "activation_23", "trainable": true, "activation": "relu"}, "inbound_nodes": [[["conv2d_23", 0, 0, {}]]]}, {"name": "conv2d_24", "class_name": "Conv2D", "config": {"name": "conv2d_24", "trainable": true, "filters": 4, "kernel_size": [1, 1], "strides": [1, 1], "padding": "same", "data_format": "channels_last", "dilation_rate": [1, 1], "activation": "linear", "use_bias": true, "kernel_initializer": {"class_name": "VarianceScaling", "config": {"scale": 1.0, "mode": "fan_avg", "distribution": "uniform", "seed": null}}, "bias_initializer": {"class_name": "Zeros", "config": {}}, "kernel_regularizer": null, "bias_regularizer": null, "activity_regularizer": null, "kernel_constraint": null, "bias_constraint": null}, "inbound_nodes": [[["conv2d_1", 0, 0, {}]]]}, {"name": "concatenate_20", "class_name": "Concatenate", "config": {"name": "concatenate_20", "trainable": true, "axis": -1}, "inbound_nodes": [[["concatenate_19", 0, 0, {}], ["lambda_21", 0, 0, {}]]]}, {"name": "lambda_22", "class_name": "Lambda", "config": {"name": "lambda_22", "trainable": true, "function": ["4wEAAAAAAAAAAQAAAAUAAABTAAAAcxAAAAB0AGoBfABkBGQCZAONA1MAKQVO6QEAAABUKQLaBGF4\naXPaCGtlZXBkaW1z6f////8pAtoBS9oDbWF4KQHaAXipAHIIAAAA+kIvc2NyYXRjaC96Z2djOS9E\nTkNPTjQvYXJjaGl0ZWN0dXJlX2Rpc3RhbmNlL2xpYi9Nb2RlbF9jb25zdHJ1Y3QucHnaCDxsYW1i\nZGE+7wAAAPMAAAAA\n", null, null], "function_type": "lambda", "output_shape": null, "output_shape_type": "raw", "arguments": {}}, "inbound_nodes": [[["activation_23", 0, 0, {}]]]}, {"name": "activation_24", "class_name": "Activation", "config": {"name": "activation_24", "trainable": true, "activation": "relu"}, "inbound_nodes": [[["conv2d_24", 0, 0, {}]]]}, {"name": "conv2d_25", "class_name": "Conv2D", "config": {"name": "conv2d_25", "trainable": true, "filters": 4, "kernel_size": [1, 1], "strides": [1, 1], "padding": "same", "data_format": "channels_last", "dilation_rate": [1, 1], "activation": "linear", "use_bias": true, "kernel_initializer": {"class_name": "VarianceScaling", "config": {"scale": 1.0, "mode": "fan_avg", "distribution": "uniform", "seed": null}}, "bias_initializer": {"class_name": "Zeros", "config": {}}, "kernel_regularizer": null, "bias_regularizer": null, "activity_regularizer": null, "kernel_constraint": null, "bias_constraint": null}, "inbound_nodes": [[["conv2d_1", 0, 0, {}]]]}, {"name": "concatenate_21", "class_name": "Concatenate", "config": {"name": "concatenate_21", "trainable": true, "axis": -1}, "inbound_nodes": [[["concatenate_20", 0, 0, {}], ["lambda_22", 0, 0, {}]]]}, {"name": "lambda_23", "class_name": "Lambda", "config": {"name": "lambda_23", "trainable": true, "function": ["4wEAAAAAAAAAAQAAAAUAAABTAAAAcxAAAAB0AGoBfABkBGQCZAONA1MAKQVO6QEAAABUKQLaBGF4\naXPaCGtlZXBkaW1z6f////8pAtoBS9oDbWF4KQHaAXipAHIIAAAA+kIvc2NyYXRjaC96Z2djOS9E\nTkNPTjQvYXJjaGl0ZWN0dXJlX2Rpc3RhbmNlL2xpYi9Nb2RlbF9jb25zdHJ1Y3QucHnaCDxsYW1i\nZGE+7wAAAPMAAAAA\n", null, null], "function_type": "lambda", "output_shape": null, "output_shape_type": "raw", "arguments": {}}, "inbound_nodes": [[["activation_24", 0, 0, {}]]]}, {"name": "activation_25", "class_name": "Activation", "config": {"name": "activation_25", "trainable": true, "activation": "relu"}, "inbound_nodes": [[["conv2d_25", 0, 0, {}]]]}, {"name": "conv2d_26", "class_name": "Conv2D", "config": {"name": "conv2d_26", "trainable": true, "filters": 4, "kernel_size": [1, 1], "strides": [1, 1], "padding": "same", "data_format": "channels_last", "dilation_rate": [1, 1], "activation": "linear", "use_bias": true, "kernel_initializer": {"class_name": "VarianceScaling", "config": {"scale": 1.0, "mode": "fan_avg", "distribution": "uniform", "seed": null}}, "bias_initializer": {"class_name": "Zeros", "config": {}}, "kernel_regularizer": null, "bias_regularizer": null, "activity_regularizer": null, "kernel_constraint": null, "bias_constraint": null}, "inbound_nodes": [[["conv2d_1", 0, 0, {}]]]}, {"name": "concatenate_22", "class_name": "Concatenate", "config": {"name": "concatenate_22", "trainable": true, "axis": -1}, "inbound_nodes": [[["concatenate_21", 0, 0, {}], ["lambda_23", 0, 0, {}]]]}, {"name": "lambda_24", "class_name": "Lambda", "config": {"name": "lambda_24", "trainable": true, "function": ["4wEAAAAAAAAAAQAAAAUAAABTAAAAcxAAAAB0AGoBfABkBGQCZAONA1MAKQVO6QEAAABUKQLaBGF4\naXPaCGtlZXBkaW1z6f////8pAtoBS9oDbWF4KQHaAXipAHIIAAAA+kIvc2NyYXRjaC96Z2djOS9E\nTkNPTjQvYXJjaGl0ZWN0dXJlX2Rpc3RhbmNlL2xpYi9Nb2RlbF9jb25zdHJ1Y3QucHnaCDxsYW1i\nZGE+7wAAAPMAAAAA\n", null, null], "function_type": "lambda", "output_shape": null, "output_shape_type": "raw", "arguments": {}}, "inbound_nodes": [[["activation_25", 0, 0, {}]]]}, {"name": "activation_26", "class_name": "Activation", "config": {"name": "activation_26", "trainable": true, "activation": "relu"}, "inbound_nodes": [[["conv2d_26", 0, 0, {}]]]}, {"name": "conv2d_27", "class_name": "Conv2D", "config": {"name": "conv2d_27", "trainable": true, "filters": 4, "kernel_size": [1, 1], "strides": [1, 1], "padding": "same", "data_format": "channels_last", "dilation_rate": [1, 1], "activation": "linear", "use_bias": true, "kernel_initializer": {"class_name": "VarianceScaling", "config": {"scale": 1.0, "mode": "fan_avg", "distribution": "uniform", "seed": null}}, "bias_initializer": {"class_name": "Zeros", "config": {}}, "kernel_regularizer": null, "bias_regularizer": null, "activity_regularizer": null, "kernel_constraint": null, "bias_constraint": null}, "inbound_nodes": [[["conv2d_1", 0, 0, {}]]]}, {"name": "concatenate_23", "class_name": "Concatenate", "config": {"name": "concatenate_23", "trainable": true, "axis": -1}, "inbound_nodes": [[["concatenate_22", 0, 0, {}], ["lambda_24", 0, 0, {}]]]}, {"name": "lambda_25", "class_name": "Lambda", "config": {"name": "lambda_25", "trainable": true, "function": ["4wEAAAAAAAAAAQAAAAUAAABTAAAAcxAAAAB0AGoBfABkBGQCZAONA1MAKQVO6QEAAABUKQLaBGF4\naXPaCGtlZXBkaW1z6f////8pAtoBS9oDbWF4KQHaAXipAHIIAAAA+kIvc2NyYXRjaC96Z2djOS9E\nTkNPTjQvYXJjaGl0ZWN0dXJlX2Rpc3RhbmNlL2xpYi9Nb2RlbF9jb25zdHJ1Y3QucHnaCDxsYW1i\nZGE+7wAAAPMAAAAA\n", null, null], "function_type": "lambda", "output_shape": null, "output_shape_type": "raw", "arguments": {}}, "inbound_nodes": [[["activation_26", 0, 0, {}]]]}, {"name": "activation_27", "class_name": "Activation", "config": {"name": "activation_27", "trainable": true, "activation": "relu"}, "inbound_nodes": [[["conv2d_27", 0, 0, {}]]]}, {"name": "conv2d_28", "class_name": "Conv2D", "config": {"name": "conv2d_28", "trainable": true, "filters": 4, "kernel_size": [1, 1], "strides": [1, 1], "padding": "same", "data_format": "channels_last", "dilation_rate": [1, 1], "activation": "linear", "use_bias": true, "kernel_initializer": {"class_name": "VarianceScaling", "config": {"scale": 1.0, "mode": "fan_avg", "distribution": "uniform", "seed": null}}, "bias_initializer": {"class_name": "Zeros", "config": {}}, "kernel_regularizer": null, "bias_regularizer": null, "activity_regularizer": null, "kernel_constraint": null, "bias_constraint": null}, "inbound_nodes": [[["conv2d_1", 0, 0, {}]]]}, {"name": "concatenate_24", "class_name": "Concatenate", "config": {"name": "concatenate_24", "trainable": true, "axis": -1}, "inbound_nodes": [[["concatenate_23", 0, 0, {}], ["lambda_25", 0, 0, {}]]]}, {"name": "lambda_26", "class_name": "Lambda", "config": {"name": "lambda_26", "trainable": true, "function": ["4wEAAAAAAAAAAQAAAAUAAABTAAAAcxAAAAB0AGoBfABkBGQCZAONA1MAKQVO6QEAAABUKQLaBGF4\naXPaCGtlZXBkaW1z6f////8pAtoBS9oDbWF4KQHaAXipAHIIAAAA+kIvc2NyYXRjaC96Z2djOS9E\nTkNPTjQvYXJjaGl0ZWN0dXJlX2Rpc3RhbmNlL2xpYi9Nb2RlbF9jb25zdHJ1Y3QucHnaCDxsYW1i\nZGE+7wAAAPMAAAAA\n", null, null], "function_type": "lambda", "output_shape": null, "output_shape_type": "raw", "arguments": {}}, "inbound_nodes": [[["activation_27", 0, 0, {}]]]}, {"name": "activation_28", "class_name": "Activation", "config": {"name": "activation_28", "trainable": true, "activation": "relu"}, "inbound_nodes": [[["conv2d_28", 0, 0, {}]]]}, {"name": "conv2d_29", "class_name": "Conv2D", "config": {"name": "conv2d_29", "trainable": true, "filters": 4, "kernel_size": [1, 1], "strides": [1, 1], "padding": "same", "data_format": "channels_last", "dilation_rate": [1, 1], "activation": "linear", "use_bias": true, "kernel_initializer": {"class_name": "VarianceScaling", "config": {"scale": 1.0, "mode": "fan_avg", "distribution": "uniform", "seed": null}}, "bias_initializer": {"class_name": "Zeros", "config": {}}, "kernel_regularizer": null, "bias_regularizer": null, "activity_regularizer": null, "kernel_constraint": null, "bias_constraint": null}, "inbound_nodes": [[["conv2d_1", 0, 0, {}]]]}, {"name": "concatenate_25", "class_name": "Concatenate", "config": {"name": "concatenate_25", "trainable": true, "axis": -1}, "inbound_nodes": [[["concatenate_24", 0, 0, {}], ["lambda_26", 0, 0, {}]]]}, {"name": "lambda_27", "class_name": "Lambda", "config": {"name": "lambda_27", "trainable": true, "function": ["4wEAAAAAAAAAAQAAAAUAAABTAAAAcxAAAAB0AGoBfABkBGQCZAONA1MAKQVO6QEAAABUKQLaBGF4\naXPaCGtlZXBkaW1z6f////8pAtoBS9oDbWF4KQHaAXipAHIIAAAA+kIvc2NyYXRjaC96Z2djOS9E\nTkNPTjQvYXJjaGl0ZWN0dXJlX2Rpc3RhbmNlL2xpYi9Nb2RlbF9jb25zdHJ1Y3QucHnaCDxsYW1i\nZGE+7wAAAPMAAAAA\n", null, null], "function_type": "lambda", "output_shape": null, "output_shape_type": "raw", "arguments": {}}, "inbound_nodes": [[["activation_28", 0, 0, {}]]]}, {"name": "activation_29", "class_name": "Activation", "config": {"name": "activation_29", "trainable": true, "activation": "relu"}, "inbound_nodes": [[["conv2d_29", 0, 0, {}]]]}, {"name": "conv2d_30", "class_name": "Conv2D", "config": {"name": "conv2d_30", "trainable": true, "filters": 4, "kernel_size": [1, 1], "strides": [1, 1], "padding": "same", "data_format": "channels_last", "dilation_rate": [1, 1], "activation": "linear", "use_bias": true, "kernel_initializer": {"class_name": "VarianceScaling", "config": {"scale": 1.0, "mode": "fan_avg", "distribution": "uniform", "seed": null}}, "bias_initializer": {"class_name": "Zeros", "config": {}}, "kernel_regularizer": null, "bias_regularizer": null, "activity_regularizer": null, "kernel_constraint": null, "bias_constraint": null}, "inbound_nodes": [[["conv2d_1", 0, 0, {}]]]}, {"name": "concatenate_26", "class_name": "Concatenate", "config": {"name": "concatenate_26", "trainable": true, "axis": -1}, "inbound_nodes": [[["concatenate_25", 0, 0, {}], ["lambda_27", 0, 0, {}]]]}, {"name": "lambda_28", "class_name": "Lambda", "config": {"name": "lambda_28", "trainable": true, "function": ["4wEAAAAAAAAAAQAAAAUAAABTAAAAcxAAAAB0AGoBfABkBGQCZAONA1MAKQVO6QEAAABUKQLaBGF4\naXPaCGtlZXBkaW1z6f////8pAtoBS9oDbWF4KQHaAXipAHIIAAAA+kIvc2NyYXRjaC96Z2djOS9E\nTkNPTjQvYXJjaGl0ZWN0dXJlX2Rpc3RhbmNlL2xpYi9Nb2RlbF9jb25zdHJ1Y3QucHnaCDxsYW1i\nZGE+7wAAAPMAAAAA\n", null, null], "function_type": "lambda", "output_shape": null, "output_shape_type": "raw", "arguments": {}}, "inbound_nodes": [[["activation_29", 0, 0, {}]]]}, {"name": "activation_30", "class_name": "Activation", "config": {"name": "activation_30", "trainable": true, "activation": "relu"}, "inbound_nodes": [[["conv2d_30", 0, 0, {}]]]}, {"name": "conv2d_31", "class_name": "Conv2D", "config": {"name": "conv2d_31", "trainable": true, "filters": 4, "kernel_size": [1, 1], "strides": [1, 1], "padding": "same", "data_format": "channels_last", "dilation_rate": [1, 1], "activation": "linear", "use_bias": true, "kernel_initializer": {"class_name": "VarianceScaling", "config": {"scale": 1.0, "mode": "fan_avg", "distribution": "uniform", "seed": null}}, "bias_initializer": {"class_name": "Zeros", "config": {}}, "kernel_regularizer": null, "bias_regularizer": null, "activity_regularizer": null, "kernel_constraint": null, "bias_constraint": null}, "inbound_nodes": [[["conv2d_1", 0, 0, {}]]]}, {"name": "concatenate_27", "class_name": "Concatenate", "config": {"name": "concatenate_27", "trainable": true, "axis": -1}, "inbound_nodes": [[["concatenate_26", 0, 0, {}], ["lambda_28", 0, 0, {}]]]}, {"name": "lambda_29", "class_name": "Lambda", "config": {"name": "lambda_29", "trainable": true, "function": ["4wEAAAAAAAAAAQAAAAUAAABTAAAAcxAAAAB0AGoBfABkBGQCZAONA1MAKQVO6QEAAABUKQLaBGF4\naXPaCGtlZXBkaW1z6f////8pAtoBS9oDbWF4KQHaAXipAHIIAAAA+kIvc2NyYXRjaC96Z2djOS9E\nTkNPTjQvYXJjaGl0ZWN0dXJlX2Rpc3RhbmNlL2xpYi9Nb2RlbF9jb25zdHJ1Y3QucHnaCDxsYW1i\nZGE+7wAAAPMAAAAA\n", null, null], "function_type": "lambda", "output_shape": null, "output_shape_type": "raw", "arguments": {}}, "inbound_nodes": [[["activation_30", 0, 0, {}]]]}, {"name": "activation_31", "class_name": "Activation", "config": {"name": "activation_31", "trainable": true, "activation": "relu"}, "inbound_nodes": [[["conv2d_31", 0, 0, {}]]]}, {"name": "conv2d_32", "class_name": "Conv2D", "config": {"name": "conv2d_32", "trainable": true, "filters": 4, "kernel_size": [1, 1], "strides": [1, 1], "padding": "same", "data_format": "channels_last", "dilation_rate": [1, 1], "activation": "linear", "use_bias": true, "kernel_initializer": {"class_name": "VarianceScaling", "config": {"scale": 1.0, "mode": "fan_avg", "distribution": "uniform", "seed": null}}, "bias_initializer": {"class_name": "Zeros", "config": {}}, "kernel_regularizer": null, "bias_regularizer": null, "activity_regularizer": null, "kernel_constraint": null, "bias_constraint": null}, "inbound_nodes": [[["conv2d_1", 0, 0, {}]]]}, {"name": "concatenate_28", "class_name": "Concatenate", "config": {"name": "concatenate_28", "trainable": true, "axis": -1}, "inbound_nodes": [[["concatenate_27", 0, 0, {}], ["lambda_29", 0, 0, {}]]]}, {"name": "lambda_30", "class_name": "Lambda", "config": {"name": "lambda_30", "trainable": true, "function": ["4wEAAAAAAAAAAQAAAAUAAABTAAAAcxAAAAB0AGoBfABkBGQCZAONA1MAKQVO6QEAAABUKQLaBGF4\naXPaCGtlZXBkaW1z6f////8pAtoBS9oDbWF4KQHaAXipAHIIAAAA+kIvc2NyYXRjaC96Z2djOS9E\nTkNPTjQvYXJjaGl0ZWN0dXJlX2Rpc3RhbmNlL2xpYi9Nb2RlbF9jb25zdHJ1Y3QucHnaCDxsYW1i\nZGE+7wAAAPMAAAAA\n", null, null], "function_type": "lambda", "output_shape": null, "output_shape_type": "raw", "arguments": {}}, "inbound_nodes": [[["activation_31", 0, 0, {}]]]}, {"name": "activation_32", "class_name": "Activation", "config": {"name": "activation_32", "trainable": true, "activation": "relu"}, "inbound_nodes": [[["conv2d_32", 0, 0, {}]]]}, {"name": "conv2d_33", "class_name": "Conv2D", "config": {"name": "conv2d_33", "trainable": true, "filters": 4, "kernel_size": [1, 1], "strides": [1, 1], "padding": "same", "data_format": "channels_last", "dilation_rate": [1, 1], "activation": "linear", "use_bias": true, "kernel_initializer": {"class_name": "VarianceScaling", "config": {"scale": 1.0, "mode": "fan_avg", "distribution": "uniform", "seed": null}}, "bias_initializer": {"class_name": "Zeros", "config": {}}, "kernel_regularizer": null, "bias_regularizer": null, "activity_regularizer": null, "kernel_constraint": null, "bias_constraint": null}, "inbound_nodes": [[["conv2d_1", 0, 0, {}]]]}, {"name": "concatenate_29", "class_name": "Concatenate", "config": {"name": "concatenate_29", "trainable": true, "axis": -1}, "inbound_nodes": [[["concatenate_28", 0, 0, {}], ["lambda_30", 0, 0, {}]]]}, {"name": "lambda_31", "class_name": "Lambda", "config": {"name": "lambda_31", "trainable": true, "function": ["4wEAAAAAAAAAAQAAAAUAAABTAAAAcxAAAAB0AGoBfABkBGQCZAONA1MAKQVO6QEAAABUKQLaBGF4\naXPaCGtlZXBkaW1z6f////8pAtoBS9oDbWF4KQHaAXipAHIIAAAA+kIvc2NyYXRjaC96Z2djOS9E\nTkNPTjQvYXJjaGl0ZWN0dXJlX2Rpc3RhbmNlL2xpYi9Nb2RlbF9jb25zdHJ1Y3QucHnaCDxsYW1i\nZGE+7wAAAPMAAAAA\n", null, null], "function_type": "lambda", "output_shape": null, "output_shape_type": "raw", "arguments": {}}, "inbound_nodes": [[["activation_32", 0, 0, {}]]]}, {"name": "activation_33", "class_name": "Activation", "config": {"name": "activation_33", "trainable": true, "activation": "relu"}, "inbound_nodes": [[["conv2d_33", 0, 0, {}]]]}, {"name": "conv2d_34", "class_name": "Conv2D", "config": {"name": "conv2d_34", "trainable": true, "filters": 4, "kernel_size": [1, 1], "strides": [1, 1], "padding": "same", "data_format": "channels_last", "dilation_rate": [1, 1], "activation": "linear", "use_bias": true, "kernel_initializer": {"class_name": "VarianceScaling", "config": {"scale": 1.0, "mode": "fan_avg", "distribution": "uniform", "seed": null}}, "bias_initializer": {"class_name": "Zeros", "config": {}}, "kernel_regularizer": null, "bias_regularizer": null, "activity_regularizer": null, "kernel_constraint": null, "bias_constraint": null}, "inbound_nodes": [[["conv2d_1", 0, 0, {}]]]}, {"name": "concatenate_30", "class_name": "Concatenate", "config": {"name": "concatenate_30", "trainable": true, "axis": -1}, "inbound_nodes": [[["concatenate_29", 0, 0, {}], ["lambda_31", 0, 0, {}]]]}, {"name": "lambda_32", "class_name": "Lambda", "config": {"name": "lambda_32", "trainable": true, "function": ["4wEAAAAAAAAAAQAAAAUAAABTAAAAcxAAAAB0AGoBfABkBGQCZAONA1MAKQVO6QEAAABUKQLaBGF4\naXPaCGtlZXBkaW1z6f////8pAtoBS9oDbWF4KQHaAXipAHIIAAAA+kIvc2NyYXRjaC96Z2djOS9E\nTkNPTjQvYXJjaGl0ZWN0dXJlX2Rpc3RhbmNlL2xpYi9Nb2RlbF9jb25zdHJ1Y3QucHnaCDxsYW1i\nZGE+7wAAAPMAAAAA\n", null, null], "function_type": "lambda", "output_shape": null, "output_shape_type": "raw", "arguments": {}}, "inbound_nodes": [[["activation_33", 0, 0, {}]]]}, {"name": "activation_34", "class_name": "Activation", "config": {"name": "activation_34", "trainable": true, "activation": "relu"}, "inbound_nodes": [[["conv2d_34", 0, 0, {}]]]}, {"name": "conv2d_35", "class_name": "Conv2D", "config": {"name": "conv2d_35", "trainable": true, "filters": 4, "kernel_size": [1, 1], "strides": [1, 1], "padding": "same", "data_format": "channels_last", "dilation_rate": [1, 1], "activation": "linear", "use_bias": true, "kernel_initializer": {"class_name": "VarianceScaling", "config": {"scale": 1.0, "mode": "fan_avg", "distribution": "uniform", "seed": null}}, "bias_initializer": {"class_name": "Zeros", "config": {}}, "kernel_regularizer": null, "bias_regularizer": null, "activity_regularizer": null, "kernel_constraint": null, "bias_constraint": null}, "inbound_nodes": [[["conv2d_1", 0, 0, {}]]]}, {"name": "concatenate_31", "class_name": "Concatenate", "config": {"name": "concatenate_31", "trainable": true, "axis": -1}, "inbound_nodes": [[["concatenate_30", 0, 0, {}], ["lambda_32", 0, 0, {}]]]}, {"name": "lambda_33", "class_name": "Lambda", "config": {"name": "lambda_33", "trainable": true, "function": ["4wEAAAAAAAAAAQAAAAUAAABTAAAAcxAAAAB0AGoBfABkBGQCZAONA1MAKQVO6QEAAABUKQLaBGF4\naXPaCGtlZXBkaW1z6f////8pAtoBS9oDbWF4KQHaAXipAHIIAAAA+kIvc2NyYXRjaC96Z2djOS9E\nTkNPTjQvYXJjaGl0ZWN0dXJlX2Rpc3RhbmNlL2xpYi9Nb2RlbF9jb25zdHJ1Y3QucHnaCDxsYW1i\nZGE+7wAAAPMAAAAA\n", null, null], "function_type": "lambda", "output_shape": null, "output_shape_type": "raw", "arguments": {}}, "inbound_nodes": [[["activation_34", 0, 0, {}]]]}, {"name": "activation_35", "class_name": "Activation", "config": {"name": "activation_35", "trainable": true, "activation": "relu"}, "inbound_nodes": [[["conv2d_35", 0, 0, {}]]]}, {"name": "conv2d_36", "class_name": "Conv2D", "config": {"name": "conv2d_36", "trainable": true, "filters": 4, "kernel_size": [1, 1], "strides": [1, 1], "padding": "same", "data_format": "channels_last", "dilation_rate": [1, 1], "activation": "linear", "use_bias": true, "kernel_initializer": {"class_name": "VarianceScaling", "config": {"scale": 1.0, "mode": "fan_avg", "distribution": "uniform", "seed": null}}, "bias_initializer": {"class_name": "Zeros", "config": {}}, "kernel_regularizer": null, "bias_regularizer": null, "activity_regularizer": null, "kernel_constraint": null, "bias_constraint": null}, "inbound_nodes": [[["conv2d_1", 0, 0, {}]]]}, {"name": "concatenate_32", "class_name": "Concatenate", "config": {"name": "concatenate_32", "trainable": true, "axis": -1}, "inbound_nodes": [[["concatenate_31", 0, 0, {}], ["lambda_33", 0, 0, {}]]]}, {"name": "lambda_34", "class_name": "Lambda", "config": {"name": "lambda_34", "trainable": true, "function": ["4wEAAAAAAAAAAQAAAAUAAABTAAAAcxAAAAB0AGoBfABkBGQCZAONA1MAKQVO6QEAAABUKQLaBGF4\naXPaCGtlZXBkaW1z6f////8pAtoBS9oDbWF4KQHaAXipAHIIAAAA+kIvc2NyYXRjaC96Z2djOS9E\nTkNPTjQvYXJjaGl0ZWN0dXJlX2Rpc3RhbmNlL2xpYi9Nb2RlbF9jb25zdHJ1Y3QucHnaCDxsYW1i\nZGE+7wAAAPMAAAAA\n", null, null], "function_type": "lambda", "output_shape": null, "output_shape_type": "raw", "arguments": {}}, "inbound_nodes": [[["activation_35", 0, 0, {}]]]}, {"name": "activation_36", "class_name": "Activation", "config": {"name": "activation_36", "trainable": true, "activation": "relu"}, "inbound_nodes": [[["conv2d_36", 0, 0, {}]]]}, {"name": "conv2d_37", "class_name": "Conv2D", "config": {"name": "conv2d_37", "trainable": true, "filters": 4, "kernel_size": [1, 1], "strides": [1, 1], "padding": "same", "data_format": "channels_last", "dilation_rate": [1, 1], "activation": "linear", "use_bias": true, "kernel_initializer": {"class_name": "VarianceScaling", "config": {"scale": 1.0, "mode": "fan_avg", "distribution": "uniform", "seed": null}}, "bias_initializer": {"class_name": "Zeros", "config": {}}, "kernel_regularizer": null, "bias_regularizer": null, "activity_regularizer": null, "kernel_constraint": null, "bias_constraint": null}, "inbound_nodes": [[["conv2d_1", 0, 0, {}]]]}, {"name": "concatenate_33", "class_name": "Concatenate", "config": {"name": "concatenate_33", "trainable": true, "axis": -1}, "inbound_nodes": [[["concatenate_32", 0, 0, {}], ["lambda_34", 0, 0, {}]]]}, {"name": "lambda_35", "class_name": "Lambda", "config": {"name": "lambda_35", "trainable": true, "function": ["4wEAAAAAAAAAAQAAAAUAAABTAAAAcxAAAAB0AGoBfABkBGQCZAONA1MAKQVO6QEAAABUKQLaBGF4\naXPaCGtlZXBkaW1z6f////8pAtoBS9oDbWF4KQHaAXipAHIIAAAA+kIvc2NyYXRjaC96Z2djOS9E\nTkNPTjQvYXJjaGl0ZWN0dXJlX2Rpc3RhbmNlL2xpYi9Nb2RlbF9jb25zdHJ1Y3QucHnaCDxsYW1i\nZGE+7wAAAPMAAAAA\n", null, null], "function_type": "lambda", "output_shape": null, "output_shape_type": "raw", "arguments": {}}, "inbound_nodes": [[["activation_36", 0, 0, {}]]]}, {"name": "activation_37", "class_name": "Activation", "config": {"name": "activation_37", "trainable": true, "activation": "relu"}, "inbound_nodes": [[["conv2d_37", 0, 0, {}]]]}, {"name": "conv2d_38", "class_name": "Conv2D", "config": {"name": "conv2d_38", "trainable": true, "filters": 4, "kernel_size": [1, 1], "strides": [1, 1], "padding": "same", "data_format": "channels_last", "dilation_rate": [1, 1], "activation": "linear", "use_bias": true, "kernel_initializer": {"class_name": "VarianceScaling", "config": {"scale": 1.0, "mode": "fan_avg", "distribution": "uniform", "seed": null}}, "bias_initializer": {"class_name": "Zeros", "config": {}}, "kernel_regularizer": null, "bias_regularizer": null, "activity_regularizer": null, "kernel_constraint": null, "bias_constraint": null}, "inbound_nodes": [[["conv2d_1", 0, 0, {}]]]}, {"name": "concatenate_34", "class_name": "Concatenate", "config": {"name": "concatenate_34", "trainable": true, "axis": -1}, "inbound_nodes": [[["concatenate_33", 0, 0, {}], ["lambda_35", 0, 0, {}]]]}, {"name": "lambda_36", "class_name": "Lambda", "config": {"name": "lambda_36", "trainable": true, "function": ["4wEAAAAAAAAAAQAAAAUAAABTAAAAcxAAAAB0AGoBfABkBGQCZAONA1MAKQVO6QEAAABUKQLaBGF4\naXPaCGtlZXBkaW1z6f////8pAtoBS9oDbWF4KQHaAXipAHIIAAAA+kIvc2NyYXRjaC96Z2djOS9E\nTkNPTjQvYXJjaGl0ZWN0dXJlX2Rpc3RhbmNlL2xpYi9Nb2RlbF9jb25zdHJ1Y3QucHnaCDxsYW1i\nZGE+7wAAAPMAAAAA\n", null, null], "function_type": "lambda", "output_shape": null, "output_shape_type": "raw", "arguments": {}}, "inbound_nodes": [[["activation_37", 0, 0, {}]]]}, {"name": "activation_38", "class_name": "Activation", "config": {"name": "activation_38", "trainable": true, "activation": "relu"}, "inbound_nodes": [[["conv2d_38", 0, 0, {}]]]}, {"name": "conv2d_39", "class_name": "Conv2D", "config": {"name": "conv2d_39", "trainable": true, "filters": 4, "kernel_size": [1, 1], "strides": [1, 1], "padding": "same", "data_format": "channels_last", "dilation_rate": [1, 1], "activation": "linear", "use_bias": true, "kernel_initializer": {"class_name": "VarianceScaling", "config": {"scale": 1.0, "mode": "fan_avg", "distribution": "uniform", "seed": null}}, "bias_initializer": {"class_name": "Zeros", "config": {}}, "kernel_regularizer": null, "bias_regularizer": null, "activity_regularizer": null, "kernel_constraint": null, "bias_constraint": null}, "inbound_nodes": [[["conv2d_1", 0, 0, {}]]]}, {"name": "concatenate_35", "class_name": "Concatenate", "config": {"name": "concatenate_35", "trainable": true, "axis": -1}, "inbound_nodes": [[["concatenate_34", 0, 0, {}], ["lambda_36", 0, 0, {}]]]}, {"name": "lambda_37", "class_name": "Lambda", "config": {"name": "lambda_37", "trainable": true, "function": ["4wEAAAAAAAAAAQAAAAUAAABTAAAAcxAAAAB0AGoBfABkBGQCZAONA1MAKQVO6QEAAABUKQLaBGF4\naXPaCGtlZXBkaW1z6f////8pAtoBS9oDbWF4KQHaAXipAHIIAAAA+kIvc2NyYXRjaC96Z2djOS9E\nTkNPTjQvYXJjaGl0ZWN0dXJlX2Rpc3RhbmNlL2xpYi9Nb2RlbF9jb25zdHJ1Y3QucHnaCDxsYW1i\nZGE+7wAAAPMAAAAA\n", null, null], "function_type": "lambda", "output_shape": null, "output_shape_type": "raw", "arguments": {}}, "inbound_nodes": [[["activation_38", 0, 0, {}]]]}, {"name": "activation_39", "class_name": "Activation", "config": {"name": "activation_39", "trainable": true, "activation": "relu"}, "inbound_nodes": [[["conv2d_39", 0, 0, {}]]]}, {"name": "conv2d_40", "class_name": "Conv2D", "config": {"name": "conv2d_40", "trainable": true, "filters": 4, "kernel_size": [1, 1], "strides": [1, 1], "padding": "same", "data_format": "channels_last", "dilation_rate": [1, 1], "activation": "linear", "use_bias": true, "kernel_initializer": {"class_name": "VarianceScaling", "config": {"scale": 1.0, "mode": "fan_avg", "distribution": "uniform", "seed": null}}, "bias_initializer": {"class_name": "Zeros", "config": {}}, "kernel_regularizer": null, "bias_regularizer": null, "activity_regularizer": null, "kernel_constraint": null, "bias_constraint": null}, "inbound_nodes": [[["conv2d_1", 0, 0, {}]]]}, {"name": "concatenate_36", "class_name": "Concatenate", "config": {"name": "concatenate_36", "trainable": true, "axis": -1}, "inbound_nodes": [[["concatenate_35", 0, 0, {}], ["lambda_37", 0, 0, {}]]]}, {"name": "lambda_38", "class_name": "Lambda", "config": {"name": "lambda_38", "trainable": true, "function": ["4wEAAAAAAAAAAQAAAAUAAABTAAAAcxAAAAB0AGoBfABkBGQCZAONA1MAKQVO6QEAAABUKQLaBGF4\naXPaCGtlZXBkaW1z6f////8pAtoBS9oDbWF4KQHaAXipAHIIAAAA+kIvc2NyYXRjaC96Z2djOS9E\nTkNPTjQvYXJjaGl0ZWN0dXJlX2Rpc3RhbmNlL2xpYi9Nb2RlbF9jb25zdHJ1Y3QucHnaCDxsYW1i\nZGE+7wAAAPMAAAAA\n", null, null], "function_type": "lambda", "output_shape": null, "output_shape_type": "raw", "arguments": {}}, "inbound_nodes": [[["activation_39", 0, 0, {}]]]}, {"name": "activation_40", "class_name": "Activation", "config": {"name": "activation_40", "trainable": true, "activation": "relu"}, "inbound_nodes": [[["conv2d_40", 0, 0, {}]]]}, {"name": "conv2d_41", "class_name": "Conv2D", "config": {"name": "conv2d_41", "trainable": true, "filters": 4, "kernel_size": [1, 1], "strides": [1, 1], "padding": "same", "data_format": "channels_last", "dilation_rate": [1, 1], "activation": "linear", "use_bias": true, "kernel_initializer": {"class_name": "VarianceScaling", "config": {"scale": 1.0, "mode": "fan_avg", "distribution": "uniform", "seed": null}}, "bias_initializer": {"class_name": "Zeros", "config": {}}, "kernel_regularizer": null, "bias_regularizer": null, "activity_regularizer": null, "kernel_constraint": null, "bias_constraint": null}, "inbound_nodes": [[["conv2d_1", 0, 0, {}]]]}, {"name": "concatenate_37", "class_name": "Concatenate", "config": {"name": "concatenate_37", "trainable": true, "axis": -1}, "inbound_nodes": [[["concatenate_36", 0, 0, {}], ["lambda_38", 0, 0, {}]]]}, {"name": "lambda_39", "class_name": "Lambda", "config": {"name": "lambda_39", "trainable": true, "function": ["4wEAAAAAAAAAAQAAAAUAAABTAAAAcxAAAAB0AGoBfABkBGQCZAONA1MAKQVO6QEAAABUKQLaBGF4\naXPaCGtlZXBkaW1z6f////8pAtoBS9oDbWF4KQHaAXipAHIIAAAA+kIvc2NyYXRjaC96Z2djOS9E\nTkNPTjQvYXJjaGl0ZWN0dXJlX2Rpc3RhbmNlL2xpYi9Nb2RlbF9jb25zdHJ1Y3QucHnaCDxsYW1i\nZGE+7wAAAPMAAAAA\n", null, null], "function_type": "lambda", "output_shape": null, "output_shape_type": "raw", "arguments": {}}, "inbound_nodes": [[["activation_40", 0, 0, {}]]]}, {"name": "activation_41", "class_name": "Activation", "config": {"name": "activation_41", "trainable": true, "activation": "relu"}, "inbound_nodes": [[["conv2d_41", 0, 0, {}]]]}, {"name": "conv2d_42", "class_name": "Conv2D", "config": {"name": "conv2d_42", "trainable": true, "filters": 4, "kernel_size": [1, 1], "strides": [1, 1], "padding": "same", "data_format": "channels_last", "dilation_rate": [1, 1], "activation": "linear", "use_bias": true, "kernel_initializer": {"class_name": "VarianceScaling", "config": {"scale": 1.0, "mode": "fan_avg", "distribution": "uniform", "seed": null}}, "bias_initializer": {"class_name": "Zeros", "config": {}}, "kernel_regularizer": null, "bias_regularizer": null, "activity_regularizer": null, "kernel_constraint": null, "bias_constraint": null}, "inbound_nodes": [[["conv2d_1", 0, 0, {}]]]}, {"name": "concatenate_38", "class_name": "Concatenate", "config": {"name": "concatenate_38", "trainable": true, "axis": -1}, "inbound_nodes": [[["concatenate_37", 0, 0, {}], ["lambda_39", 0, 0, {}]]]}, {"name": "lambda_40", "class_name": "Lambda", "config": {"name": "lambda_40", "trainable": true, "function": ["4wEAAAAAAAAAAQAAAAUAAABTAAAAcxAAAAB0AGoBfABkBGQCZAONA1MAKQVO6QEAAABUKQLaBGF4\naXPaCGtlZXBkaW1z6f////8pAtoBS9oDbWF4KQHaAXipAHIIAAAA+kIvc2NyYXRjaC96Z2djOS9E\nTkNPTjQvYXJjaGl0ZWN0dXJlX2Rpc3RhbmNlL2xpYi9Nb2RlbF9jb25zdHJ1Y3QucHnaCDxsYW1i\nZGE+7wAAAPMAAAAA\n", null, null], "function_type": "lambda", "output_shape": null, "output_shape_type": "raw", "arguments": {}}, "inbound_nodes": [[["activation_41", 0, 0, {}]]]}, {"name": "activation_42", "class_name": "Activation", "config": {"name": "activation_42", "trainable": true, "activation": "relu"}, "inbound_nodes": [[["conv2d_42", 0, 0, {}]]]}, {"name": "conv2d_43", "class_name": "Conv2D", "config": {"name": "conv2d_43", "trainable": true, "filters": 4, "kernel_size": [1, 1], "strides": [1, 1], "padding": "same", "data_format": "channels_last", "dilation_rate": [1, 1], "activation": "linear", "use_bias": true, "kernel_initializer": {"class_name": "VarianceScaling", "config": {"scale": 1.0, "mode": "fan_avg", "distribution": "uniform", "seed": null}}, "bias_initializer": {"class_name": "Zeros", "config": {}}, "kernel_regularizer": null, "bias_regularizer": null, "activity_regularizer": null, "kernel_constraint": null, "bias_constraint": null}, "inbound_nodes": [[["conv2d_1", 0, 0, {}]]]}, {"name": "concatenate_39", "class_name": "Concatenate", "config": {"name": "concatenate_39", "trainable": true, "axis": -1}, "inbound_nodes": [[["concatenate_38", 0, 0, {}], ["lambda_40", 0, 0, {}]]]}, {"name": "lambda_41", "class_name": "Lambda", "config": {"name": "lambda_41", "trainable": true, "function": ["4wEAAAAAAAAAAQAAAAUAAABTAAAAcxAAAAB0AGoBfABkBGQCZAONA1MAKQVO6QEAAABUKQLaBGF4\naXPaCGtlZXBkaW1z6f////8pAtoBS9oDbWF4KQHaAXipAHIIAAAA+kIvc2NyYXRjaC96Z2djOS9E\nTkNPTjQvYXJjaGl0ZWN0dXJlX2Rpc3RhbmNlL2xpYi9Nb2RlbF9jb25zdHJ1Y3QucHnaCDxsYW1i\nZGE+7wAAAPMAAAAA\n", null, null], "function_type": "lambda", "output_shape": null, "output_shape_type": "raw", "arguments": {}}, "inbound_nodes": [[["activation_42", 0, 0, {}]]]}, {"name": "activation_43", "class_name": "Activation", "config": {"name": "activation_43", "trainable": true, "activation": "relu"}, "inbound_nodes": [[["conv2d_43", 0, 0, {}]]]}, {"name": "conv2d_44", "class_name": "Conv2D", "config": {"name": "conv2d_44", "trainable": true, "filters": 4, "kernel_size": [1, 1], "strides": [1, 1], "padding": "same", "data_format": "channels_last", "dilation_rate": [1, 1], "activation": "linear", "use_bias": true, "kernel_initializer": {"class_name": "VarianceScaling", "config": {"scale": 1.0, "mode": "fan_avg", "distribution": "uniform", "seed": null}}, "bias_initializer": {"class_name": "Zeros", "config": {}}, "kernel_regularizer": null, "bias_regularizer": null, "activity_regularizer": null, "kernel_constraint": null, "bias_constraint": null}, "inbound_nodes": [[["conv2d_1", 0, 0, {}]]]}, {"name": "concatenate_40", "class_name": "Concatenate", "config": {"name": "concatenate_40", "trainable": true, "axis": -1}, "inbound_nodes": [[["concatenate_39", 0, 0, {}], ["lambda_41", 0, 0, {}]]]}, {"name": "lambda_42", "class_name": "Lambda", "config": {"name": "lambda_42", "trainable": true, "function": ["4wEAAAAAAAAAAQAAAAUAAABTAAAAcxAAAAB0AGoBfABkBGQCZAONA1MAKQVO6QEAAABUKQLaBGF4\naXPaCGtlZXBkaW1z6f////8pAtoBS9oDbWF4KQHaAXipAHIIAAAA+kIvc2NyYXRjaC96Z2djOS9E\nTkNPTjQvYXJjaGl0ZWN0dXJlX2Rpc3RhbmNlL2xpYi9Nb2RlbF9jb25zdHJ1Y3QucHnaCDxsYW1i\nZGE+7wAAAPMAAAAA\n", null, null], "function_type": "lambda", "output_shape": null, "output_shape_type": "raw", "arguments": {}}, "inbound_nodes": [[["activation_43", 0, 0, {}]]]}, {"name": "activation_44", "class_name": "Activation", "config": {"name": "activation_44", "trainable": true, "activation": "relu"}, "inbound_nodes": [[["conv2d_44", 0, 0, {}]]]}, {"name": "conv2d_45", "class_name": "Conv2D", "config": {"name": "conv2d_45", "trainable": true, "filters": 4, "kernel_size": [1, 1], "strides": [1, 1], "padding": "same", "data_format": "channels_last", "dilation_rate": [1, 1], "activation": "linear", "use_bias": true, "kernel_initializer": {"class_name": "VarianceScaling", "config": {"scale": 1.0, "mode": "fan_avg", "distribution": "uniform", "seed": null}}, "bias_initializer": {"class_name": "Zeros", "config": {}}, "kernel_regularizer": null, "bias_regularizer": null, "activity_regularizer": null, "kernel_constraint": null, "bias_constraint": null}, "inbound_nodes": [[["conv2d_1", 0, 0, {}]]]}, {"name": "concatenate_41", "class_name": "Concatenate", "config": {"name": "concatenate_41", "trainable": true, "axis": -1}, "inbound_nodes": [[["concatenate_40", 0, 0, {}], ["lambda_42", 0, 0, {}]]]}, {"name": "lambda_43", "class_name": "Lambda", "config": {"name": "lambda_43", "trainable": true, "function": ["4wEAAAAAAAAAAQAAAAUAAABTAAAAcxAAAAB0AGoBfABkBGQCZAONA1MAKQVO6QEAAABUKQLaBGF4\naXPaCGtlZXBkaW1z6f////8pAtoBS9oDbWF4KQHaAXipAHIIAAAA+kIvc2NyYXRjaC96Z2djOS9E\nTkNPTjQvYXJjaGl0ZWN0dXJlX2Rpc3RhbmNlL2xpYi9Nb2RlbF9jb25zdHJ1Y3QucHnaCDxsYW1i\nZGE+7wAAAPMAAAAA\n", null, null], "function_type": "lambda", "output_shape": null, "output_shape_type": "raw", "arguments": {}}, "inbound_nodes": [[["activation_44", 0, 0, {}]]]}, {"name": "activation_45", "class_name": "Activation", "config": {"name": "activation_45", "trainable": true, "activation": "relu"}, "inbound_nodes": [[["conv2d_45", 0, 0, {}]]]}, {"name": "conv2d_46", "class_name": "Conv2D", "config": {"name": "conv2d_46", "trainable": true, "filters": 4, "kernel_size": [1, 1], "strides": [1, 1], "padding": "same", "data_format": "channels_last", "dilation_rate": [1, 1], "activation": "linear", "use_bias": true, "kernel_initializer": {"class_name": "VarianceScaling", "config": {"scale": 1.0, "mode": "fan_avg", "distribution": "uniform", "seed": null}}, "bias_initializer": {"class_name": "Zeros", "config": {}}, "kernel_regularizer": null, "bias_regularizer": null, "activity_regularizer": null, "kernel_constraint": null, "bias_constraint": null}, "inbound_nodes": [[["conv2d_1", 0, 0, {}]]]}, {"name": "concatenate_42", "class_name": "Concatenate", "config": {"name": "concatenate_42", "trainable": true, "axis": -1}, "inbound_nodes": [[["concatenate_41", 0, 0, {}], ["lambda_43", 0, 0, {}]]]}, {"name": "lambda_44", "class_name": "Lambda", "config": {"name": "lambda_44", "trainable": true, "function": ["4wEAAAAAAAAAAQAAAAUAAABTAAAAcxAAAAB0AGoBfABkBGQCZAONA1MAKQVO6QEAAABUKQLaBGF4\naXPaCGtlZXBkaW1z6f////8pAtoBS9oDbWF4KQHaAXipAHIIAAAA+kIvc2NyYXRjaC96Z2djOS9E\nTkNPTjQvYXJjaGl0ZWN0dXJlX2Rpc3RhbmNlL2xpYi9Nb2RlbF9jb25zdHJ1Y3QucHnaCDxsYW1i\nZGE+7wAAAPMAAAAA\n", null, null], "function_type": "lambda", "output_shape": null, "output_shape_type": "raw", "arguments": {}}, "inbound_nodes": [[["activation_45", 0, 0, {}]]]}, {"name": "activation_46", "class_name": "Activation", "config": {"name": "activation_46", "trainable": true, "activation": "relu"}, "inbound_nodes": [[["conv2d_46", 0, 0, {}]]]}, {"name": "conv2d_47", "class_name": "Conv2D", "config": {"name": "conv2d_47", "trainable": true, "filters": 4, "kernel_size": [1, 1], "strides": [1, 1], "padding": "same", "data_format": "channels_last", "dilation_rate": [1, 1], "activation": "linear", "use_bias": true, "kernel_initializer": {"class_name": "VarianceScaling", "config": {"scale": 1.0, "mode": "fan_avg", "distribution": "uniform", "seed": null}}, "bias_initializer": {"class_name": "Zeros", "config": {}}, "kernel_regularizer": null, "bias_regularizer": null, "activity_regularizer": null, "kernel_constraint": null, "bias_constraint": null}, "inbound_nodes": [[["conv2d_1", 0, 0, {}]]]}, {"name": "concatenate_43", "class_name": "Concatenate", "config": {"name": "concatenate_43", "trainable": true, "axis": -1}, "inbound_nodes": [[["concatenate_42", 0, 0, {}], ["lambda_44", 0, 0, {}]]]}, {"name": "lambda_45", "class_name": "Lambda", "config": {"name": "lambda_45", "trainable": true, "function": ["4wEAAAAAAAAAAQAAAAUAAABTAAAAcxAAAAB0AGoBfABkBGQCZAONA1MAKQVO6QEAAABUKQLaBGF4\naXPaCGtlZXBkaW1z6f////8pAtoBS9oDbWF4KQHaAXipAHIIAAAA+kIvc2NyYXRjaC96Z2djOS9E\nTkNPTjQvYXJjaGl0ZWN0dXJlX2Rpc3RhbmNlL2xpYi9Nb2RlbF9jb25zdHJ1Y3QucHnaCDxsYW1i\nZGE+7wAAAPMAAAAA\n", null, null], "function_type": "lambda", "output_shape": null, "output_shape_type": "raw", "arguments": {}}, "inbound_nodes": [[["activation_46", 0, 0, {}]]]}, {"name": "activation_47", "class_name": "Activation", "config": {"name": "activation_47", "trainable": true, "activation": "relu"}, "inbound_nodes": [[["conv2d_47", 0, 0, {}]]]}, {"name": "conv2d_48", "class_name": "Conv2D", "config": {"name": "conv2d_48", "trainable": true, "filters": 4, "kernel_size": [1, 1], "strides": [1, 1], "padding": "same", "data_format": "channels_last", "dilation_rate": [1, 1], "activation": "linear", "use_bias": true, "kernel_initializer": {"class_name": "VarianceScaling", "config": {"scale": 1.0, "mode": "fan_avg", "distribution": "uniform", "seed": null}}, "bias_initializer": {"class_name": "Zeros", "config": {}}, "kernel_regularizer": null, "bias_regularizer": null, "activity_regularizer": null, "kernel_constraint": null, "bias_constraint": null}, "inbound_nodes": [[["conv2d_1", 0, 0, {}]]]}, {"name": "concatenate_44", "class_name": "Concatenate", "config": {"name": "concatenate_44", "trainable": true, "axis": -1}, "inbound_nodes": [[["concatenate_43", 0, 0, {}], ["lambda_45", 0, 0, {}]]]}, {"name": "lambda_46", "class_name": "Lambda", "config": {"name": "lambda_46", "trainable": true, "function": ["4wEAAAAAAAAAAQAAAAUAAABTAAAAcxAAAAB0AGoBfABkBGQCZAONA1MAKQVO6QEAAABUKQLaBGF4\naXPaCGtlZXBkaW1z6f////8pAtoBS9oDbWF4KQHaAXipAHIIAAAA+kIvc2NyYXRjaC96Z2djOS9E\nTkNPTjQvYXJjaGl0ZWN0dXJlX2Rpc3RhbmNlL2xpYi9Nb2RlbF9jb25zdHJ1Y3QucHnaCDxsYW1i\nZGE+7wAAAPMAAAAA\n", null, null], "function_type": "lambda", "output_shape": null, "output_shape_type": "raw", "arguments": {}}, "inbound_nodes": [[["activation_47", 0, 0, {}]]]}, {"name": "activation_48", "class_name": "Activation", "config": {"name": "activation_48", "trainable": true, "activation": "relu"}, "inbound_nodes": [[["conv2d_48", 0, 0, {}]]]}, {"name": "conv2d_49", "class_name": "Conv2D", "config": {"name": "conv2d_49", "trainable": true, "filters": 4, "kernel_size": [1, 1], "strides": [1, 1], "padding": "same", "data_format": "channels_last", "dilation_rate": [1, 1], "activation": "linear", "use_bias": true, "kernel_initializer": {"class_name": "VarianceScaling", "config": {"scale": 1.0, "mode": "fan_avg", "distribution": "uniform", "seed": null}}, "bias_initializer": {"class_name": "Zeros", "config": {}}, "kernel_regularizer": null, "bias_regularizer": null, "activity_regularizer": null, "kernel_constraint": null, "bias_constraint": null}, "inbound_nodes": [[["conv2d_1", 0, 0, {}]]]}, {"name": "concatenate_45", "class_name": "Concatenate", "config": {"name": "concatenate_45", "trainable": true, "axis": -1}, "inbound_nodes": [[["concatenate_44", 0, 0, {}], ["lambda_46", 0, 0, {}]]]}, {"name": "lambda_47", "class_name": "Lambda", "config": {"name": "lambda_47", "trainable": true, "function": ["4wEAAAAAAAAAAQAAAAUAAABTAAAAcxAAAAB0AGoBfABkBGQCZAONA1MAKQVO6QEAAABUKQLaBGF4\naXPaCGtlZXBkaW1z6f////8pAtoBS9oDbWF4KQHaAXipAHIIAAAA+kIvc2NyYXRjaC96Z2djOS9E\nTkNPTjQvYXJjaGl0ZWN0dXJlX2Rpc3RhbmNlL2xpYi9Nb2RlbF9jb25zdHJ1Y3QucHnaCDxsYW1i\nZGE+7wAAAPMAAAAA\n", null, null], "function_type": "lambda", "output_shape": null, "output_shape_type": "raw", "arguments": {}}, "inbound_nodes": [[["activation_48", 0, 0, {}]]]}, {"name": "activation_49", "class_name": "Activation", "config": {"name": "activation_49", "trainable": true, "activation": "relu"}, "inbound_nodes": [[["conv2d_49", 0, 0, {}]]]}, {"name": "conv2d_50", "class_name": "Conv2D", "config": {"name": "conv2d_50", "trainable": true, "filters": 4, "kernel_size": [1, 1], "strides": [1, 1], "padding": "same", "data_format": "channels_last", "dilation_rate": [1, 1], "activation": "linear", "use_bias": true, "kernel_initializer": {"class_name": "VarianceScaling", "config": {"scale": 1.0, "mode": "fan_avg", "distribution": "uniform", "seed": null}}, "bias_initializer": {"class_name": "Zeros", "config": {}}, "kernel_regularizer": null, "bias_regularizer": null, "activity_regularizer": null, "kernel_constraint": null, "bias_constraint": null}, "inbound_nodes": [[["conv2d_1", 0, 0, {}]]]}, {"name": "concatenate_46", "class_name": "Concatenate", "config": {"name": "concatenate_46", "trainable": true, "axis": -1}, "inbound_nodes": [[["concatenate_45", 0, 0, {}], ["lambda_47", 0, 0, {}]]]}, {"name": "lambda_48", "class_name": "Lambda", "config": {"name": "lambda_48", "trainable": true, "function": ["4wEAAAAAAAAAAQAAAAUAAABTAAAAcxAAAAB0AGoBfABkBGQCZAONA1MAKQVO6QEAAABUKQLaBGF4\naXPaCGtlZXBkaW1z6f////8pAtoBS9oDbWF4KQHaAXipAHIIAAAA+kIvc2NyYXRjaC96Z2djOS9E\nTkNPTjQvYXJjaGl0ZWN0dXJlX2Rpc3RhbmNlL2xpYi9Nb2RlbF9jb25zdHJ1Y3QucHnaCDxsYW1i\nZGE+7wAAAPMAAAAA\n", null, null], "function_type": "lambda", "output_shape": null, "output_shape_type": "raw", "arguments": {}}, "inbound_nodes": [[["activation_49", 0, 0, {}]]]}, {"name": "activation_50", "class_name": "Activation", "config": {"name": "activation_50", "trainable": true, "activation": "relu"}, "inbound_nodes": [[["conv2d_50", 0, 0, {}]]]}, {"name": "conv2d_51", "class_name": "Conv2D", "config": {"name": "conv2d_51", "trainable": true, "filters": 4, "kernel_size": [1, 1], "strides": [1, 1], "padding": "same", "data_format": "channels_last", "dilation_rate": [1, 1], "activation": "linear", "use_bias": true, "kernel_initializer": {"class_name": "VarianceScaling", "config": {"scale": 1.0, "mode": "fan_avg", "distribution": "uniform", "seed": null}}, "bias_initializer": {"class_name": "Zeros", "config": {}}, "kernel_regularizer": null, "bias_regularizer": null, "activity_regularizer": null, "kernel_constraint": null, "bias_constraint": null}, "inbound_nodes": [[["conv2d_1", 0, 0, {}]]]}, {"name": "concatenate_47", "class_name": "Concatenate", "config": {"name": "concatenate_47", "trainable": true, "axis": -1}, "inbound_nodes": [[["concatenate_46", 0, 0, {}], ["lambda_48", 0, 0, {}]]]}, {"name": "lambda_49", "class_name": "Lambda", "config": {"name": "lambda_49", "trainable": true, "function": ["4wEAAAAAAAAAAQAAAAUAAABTAAAAcxAAAAB0AGoBfABkBGQCZAONA1MAKQVO6QEAAABUKQLaBGF4\naXPaCGtlZXBkaW1z6f////8pAtoBS9oDbWF4KQHaAXipAHIIAAAA+kIvc2NyYXRjaC96Z2djOS9E\nTkNPTjQvYXJjaGl0ZWN0dXJlX2Rpc3RhbmNlL2xpYi9Nb2RlbF9jb25zdHJ1Y3QucHnaCDxsYW1i\nZGE+7wAAAPMAAAAA\n", null, null], "function_type": "lambda", "output_shape": null, "output_shape_type": "raw", "arguments": {}}, "inbound_nodes": [[["activation_50", 0, 0, {}]]]}, {"name": "activation_51", "class_name": "Activation", "config": {"name": "activation_51", "trainable": true, "activation": "relu"}, "inbound_nodes": [[["conv2d_51", 0, 0, {}]]]}, {"name": "conv2d_52", "class_name": "Conv2D", "config": {"name": "conv2d_52", "trainable": true, "filters": 4, "kernel_size": [1, 1], "strides": [1, 1], "padding": "same", "data_format": "channels_last", "dilation_rate": [1, 1], "activation": "linear", "use_bias": true, "kernel_initializer": {"class_name": "VarianceScaling", "config": {"scale": 1.0, "mode": "fan_avg", "distribution": "uniform", "seed": null}}, "bias_initializer": {"class_name": "Zeros", "config": {}}, "kernel_regularizer": null, "bias_regularizer": null, "activity_regularizer": null, "kernel_constraint": null, "bias_constraint": null}, "inbound_nodes": [[["conv2d_1", 0, 0, {}]]]}, {"name": "concatenate_48", "class_name": "Concatenate", "config": {"name": "concatenate_48", "trainable": true, "axis": -1}, "inbound_nodes": [[["concatenate_47", 0, 0, {}], ["lambda_49", 0, 0, {}]]]}, {"name": "lambda_50", "class_name": "Lambda", "config": {"name": "lambda_50", "trainable": true, "function": ["4wEAAAAAAAAAAQAAAAUAAABTAAAAcxAAAAB0AGoBfABkBGQCZAONA1MAKQVO6QEAAABUKQLaBGF4\naXPaCGtlZXBkaW1z6f////8pAtoBS9oDbWF4KQHaAXipAHIIAAAA+kIvc2NyYXRjaC96Z2djOS9E\nTkNPTjQvYXJjaGl0ZWN0dXJlX2Rpc3RhbmNlL2xpYi9Nb2RlbF9jb25zdHJ1Y3QucHnaCDxsYW1i\nZGE+7wAAAPMAAAAA\n", null, null], "function_type": "lambda", "output_shape": null, "output_shape_type": "raw", "arguments": {}}, "inbound_nodes": [[["activation_51", 0, 0, {}]]]}, {"name": "activation_52", "class_name": "Activation", "config": {"name": "activation_52", "trainable": true, "activation": "relu"}, "inbound_nodes": [[["conv2d_52", 0, 0, {}]]]}, {"name": "conv2d_53", "class_name": "Conv2D", "config": {"name": "conv2d_53", "trainable": true, "filters": 4, "kernel_size": [1, 1], "strides": [1, 1], "padding": "same", "data_format": "channels_last", "dilation_rate": [1, 1], "activation": "linear", "use_bias": true, "kernel_initializer": {"class_name": "VarianceScaling", "config": {"scale": 1.0, "mode": "fan_avg", "distribution": "uniform", "seed": null}}, "bias_initializer": {"class_name": "Zeros", "config": {}}, "kernel_regularizer": null, "bias_regularizer": null, "activity_regularizer": null, "kernel_constraint": null, "bias_constraint": null}, "inbound_nodes": [[["conv2d_1", 0, 0, {}]]]}, {"name": "concatenate_49", "class_name": "Concatenate", "config": {"name": "concatenate_49", "trainable": true, "axis": -1}, "inbound_nodes": [[["concatenate_48", 0, 0, {}], ["lambda_50", 0, 0, {}]]]}, {"name": "lambda_51", "class_name": "Lambda", "config": {"name": "lambda_51", "trainable": true, "function": ["4wEAAAAAAAAAAQAAAAUAAABTAAAAcxAAAAB0AGoBfABkBGQCZAONA1MAKQVO6QEAAABUKQLaBGF4\naXPaCGtlZXBkaW1z6f////8pAtoBS9oDbWF4KQHaAXipAHIIAAAA+kIvc2NyYXRjaC96Z2djOS9E\nTkNPTjQvYXJjaGl0ZWN0dXJlX2Rpc3RhbmNlL2xpYi9Nb2RlbF9jb25zdHJ1Y3QucHnaCDxsYW1i\nZGE+7wAAAPMAAAAA\n", null, null], "function_type": "lambda", "output_shape": null, "output_shape_type": "raw", "arguments": {}}, "inbound_nodes": [[["activation_52", 0, 0, {}]]]}, {"name": "activation_53", "class_name": "Activation", "config": {"name": "activation_53", "trainable": true, "activation": "relu"}, "inbound_nodes": [[["conv2d_53", 0, 0, {}]]]}, {"name": "conv2d_54", "class_name": "Conv2D", "config": {"name": "conv2d_54", "trainable": true, "filters": 4, "kernel_size": [1, 1], "strides": [1, 1], "padding": "same", "data_format": "channels_last", "dilation_rate": [1, 1], "activation": "linear", "use_bias": true, "kernel_initializer": {"class_name": "VarianceScaling", "config": {"scale": 1.0, "mode": "fan_avg", "distribution": "uniform", "seed": null}}, "bias_initializer": {"class_name": "Zeros", "config": {}}, "kernel_regularizer": null, "bias_regularizer": null, "activity_regularizer": null, "kernel_constraint": null, "bias_constraint": null}, "inbound_nodes": [[["conv2d_1", 0, 0, {}]]]}, {"name": "concatenate_50", "class_name": "Concatenate", "config": {"name": "concatenate_50", "trainable": true, "axis": -1}, "inbound_nodes": [[["concatenate_49", 0, 0, {}], ["lambda_51", 0, 0, {}]]]}, {"name": "lambda_52", "class_name": "Lambda", "config": {"name": "lambda_52", "trainable": true, "function": ["4wEAAAAAAAAAAQAAAAUAAABTAAAAcxAAAAB0AGoBfABkBGQCZAONA1MAKQVO6QEAAABUKQLaBGF4\naXPaCGtlZXBkaW1z6f////8pAtoBS9oDbWF4KQHaAXipAHIIAAAA+kIvc2NyYXRjaC96Z2djOS9E\nTkNPTjQvYXJjaGl0ZWN0dXJlX2Rpc3RhbmNlL2xpYi9Nb2RlbF9jb25zdHJ1Y3QucHnaCDxsYW1i\nZGE+7wAAAPMAAAAA\n", null, null], "function_type": "lambda", "output_shape": null, "output_shape_type": "raw", "arguments": {}}, "inbound_nodes": [[["activation_53", 0, 0, {}]]]}, {"name": "activation_54", "class_name": "Activation", "config": {"name": "activation_54", "trainable": true, "activation": "relu"}, "inbound_nodes": [[["conv2d_54", 0, 0, {}]]]}, {"name": "conv2d_55", "class_name": "Conv2D", "config": {"name": "conv2d_55", "trainable": true, "filters": 4, "kernel_size": [1, 1], "strides": [1, 1], "padding": "same", "data_format": "channels_last", "dilation_rate": [1, 1], "activation": "linear", "use_bias": true, "kernel_initializer": {"class_name": "VarianceScaling", "config": {"scale": 1.0, "mode": "fan_avg", "distribution": "uniform", "seed": null}}, "bias_initializer": {"class_name": "Zeros", "config": {}}, "kernel_regularizer": null, "bias_regularizer": null, "activity_regularizer": null, "kernel_constraint": null, "bias_constraint": null}, "inbound_nodes": [[["conv2d_1", 0, 0, {}]]]}, {"name": "concatenate_51", "class_name": "Concatenate", "config": {"name": "concatenate_51", "trainable": true, "axis": -1}, "inbound_nodes": [[["concatenate_50", 0, 0, {}], ["lambda_52", 0, 0, {}]]]}, {"name": "lambda_53", "class_name": "Lambda", "config": {"name": "lambda_53", "trainable": true, "function": ["4wEAAAAAAAAAAQAAAAUAAABTAAAAcxAAAAB0AGoBfABkBGQCZAONA1MAKQVO6QEAAABUKQLaBGF4\naXPaCGtlZXBkaW1z6f////8pAtoBS9oDbWF4KQHaAXipAHIIAAAA+kIvc2NyYXRjaC96Z2djOS9E\nTkNPTjQvYXJjaGl0ZWN0dXJlX2Rpc3RhbmNlL2xpYi9Nb2RlbF9jb25zdHJ1Y3QucHnaCDxsYW1i\nZGE+7wAAAPMAAAAA\n", null, null], "function_type": "lambda", "output_shape": null, "output_shape_type": "raw", "arguments": {}}, "inbound_nodes": [[["activation_54", 0, 0, {}]]]}, {"name": "activation_55", "class_name": "Activation", "config": {"name": "activation_55", "trainable": true, "activation": "relu"}, "inbound_nodes": [[["conv2d_55", 0, 0, {}]]]}, {"name": "conv2d_56", "class_name": "Conv2D", "config": {"name": "conv2d_56", "trainable": true, "filters": 4, "kernel_size": [1, 1], "strides": [1, 1], "padding": "same", "data_format": "channels_last", "dilation_rate": [1, 1], "activation": "linear", "use_bias": true, "kernel_initializer": {"class_name": "VarianceScaling", "config": {"scale": 1.0, "mode": "fan_avg", "distribution": "uniform", "seed": null}}, "bias_initializer": {"class_name": "Zeros", "config": {}}, "kernel_regularizer": null, "bias_regularizer": null, "activity_regularizer": null, "kernel_constraint": null, "bias_constraint": null}, "inbound_nodes": [[["conv2d_1", 0, 0, {}]]]}, {"name": "concatenate_52", "class_name": "Concatenate", "config": {"name": "concatenate_52", "trainable": true, "axis": -1}, "inbound_nodes": [[["concatenate_51", 0, 0, {}], ["lambda_53", 0, 0, {}]]]}, {"name": "lambda_54", "class_name": "Lambda", "config": {"name": "lambda_54", "trainable": true, "function": ["4wEAAAAAAAAAAQAAAAUAAABTAAAAcxAAAAB0AGoBfABkBGQCZAONA1MAKQVO6QEAAABUKQLaBGF4\naXPaCGtlZXBkaW1z6f////8pAtoBS9oDbWF4KQHaAXipAHIIAAAA+kIvc2NyYXRjaC96Z2djOS9E\nTkNPTjQvYXJjaGl0ZWN0dXJlX2Rpc3RhbmNlL2xpYi9Nb2RlbF9jb25zdHJ1Y3QucHnaCDxsYW1i\nZGE+7wAAAPMAAAAA\n", null, null], "function_type": "lambda", "output_shape": null, "output_shape_type": "raw", "arguments": {}}, "inbound_nodes": [[["activation_55", 0, 0, {}]]]}, {"name": "activation_56", "class_name": "Activation", "config": {"name": "activation_56", "trainable": true, "activation": "relu"}, "inbound_nodes": [[["conv2d_56", 0, 0, {}]]]}, {"name": "conv2d_57", "class_name": "Conv2D", "config": {"name": "conv2d_57", "trainable": true, "filters": 4, "kernel_size": [1, 1], "strides": [1, 1], "padding": "same", "data_format": "channels_last", "dilation_rate": [1, 1], "activation": "linear", "use_bias": true, "kernel_initializer": {"class_name": "VarianceScaling", "config": {"scale": 1.0, "mode": "fan_avg", "distribution": "uniform", "seed": null}}, "bias_initializer": {"class_name": "Zeros", "config": {}}, "kernel_regularizer": null, "bias_regularizer": null, "activity_regularizer": null, "kernel_constraint": null, "bias_constraint": null}, "inbound_nodes": [[["conv2d_1", 0, 0, {}]]]}, {"name": "concatenate_53", "class_name": "Concatenate", "config": {"name": "concatenate_53", "trainable": true, "axis": -1}, "inbound_nodes": [[["concatenate_52", 0, 0, {}], ["lambda_54", 0, 0, {}]]]}, {"name": "lambda_55", "class_name": "Lambda", "config": {"name": "lambda_55", "trainable": true, "function": ["4wEAAAAAAAAAAQAAAAUAAABTAAAAcxAAAAB0AGoBfABkBGQCZAONA1MAKQVO6QEAAABUKQLaBGF4\naXPaCGtlZXBkaW1z6f////8pAtoBS9oDbWF4KQHaAXipAHIIAAAA+kIvc2NyYXRjaC96Z2djOS9E\nTkNPTjQvYXJjaGl0ZWN0dXJlX2Rpc3RhbmNlL2xpYi9Nb2RlbF9jb25zdHJ1Y3QucHnaCDxsYW1i\nZGE+7wAAAPMAAAAA\n", null, null], "function_type": "lambda", "output_shape": null, "output_shape_type": "raw", "arguments": {}}, "inbound_nodes": [[["activation_56", 0, 0, {}]]]}, {"name": "activation_57", "class_name": "Activation", "config": {"name": "activation_57", "trainable": true, "activation": "relu"}, "inbound_nodes": [[["conv2d_57", 0, 0, {}]]]}, {"name": "conv2d_58", "class_name": "Conv2D", "config": {"name": "conv2d_58", "trainable": true, "filters": 4, "kernel_size": [1, 1], "strides": [1, 1], "padding": "same", "data_format": "channels_last", "dilation_rate": [1, 1], "activation": "linear", "use_bias": true, "kernel_initializer": {"class_name": "VarianceScaling", "config": {"scale": 1.0, "mode": "fan_avg", "distribution": "uniform", "seed": null}}, "bias_initializer": {"class_name": "Zeros", "config": {}}, "kernel_regularizer": null, "bias_regularizer": null, "activity_regularizer": null, "kernel_constraint": null, "bias_constraint": null}, "inbound_nodes": [[["conv2d_1", 0, 0, {}]]]}, {"name": "concatenate_54", "class_name": "Concatenate", "config": {"name": "concatenate_54", "trainable": true, "axis": -1}, "inbound_nodes": [[["concatenate_53", 0, 0, {}], ["lambda_55", 0, 0, {}]]]}, {"name": "lambda_56", "class_name": "Lambda", "config": {"name": "lambda_56", "trainable": true, "function": ["4wEAAAAAAAAAAQAAAAUAAABTAAAAcxAAAAB0AGoBfABkBGQCZAONA1MAKQVO6QEAAABUKQLaBGF4\naXPaCGtlZXBkaW1z6f////8pAtoBS9oDbWF4KQHaAXipAHIIAAAA+kIvc2NyYXRjaC96Z2djOS9E\nTkNPTjQvYXJjaGl0ZWN0dXJlX2Rpc3RhbmNlL2xpYi9Nb2RlbF9jb25zdHJ1Y3QucHnaCDxsYW1i\nZGE+7wAAAPMAAAAA\n", null, null], "function_type": "lambda", "output_shape": null, "output_shape_type": "raw", "arguments": {}}, "inbound_nodes": [[["activation_57", 0, 0, {}]]]}, {"name": "activation_58", "class_name": "Activation", "config": {"name": "activation_58", "trainable": true, "activation": "relu"}, "inbound_nodes": [[["conv2d_58", 0, 0, {}]]]}, {"name": "conv2d_59", "class_name": "Conv2D", "config": {"name": "conv2d_59", "trainable": true, "filters": 4, "kernel_size": [1, 1], "strides": [1, 1], "padding": "same", "data_format": "channels_last", "dilation_rate": [1, 1], "activation": "linear", "use_bias": true, "kernel_initializer": {"class_name": "VarianceScaling", "config": {"scale": 1.0, "mode": "fan_avg", "distribution": "uniform", "seed": null}}, "bias_initializer": {"class_name": "Zeros", "config": {}}, "kernel_regularizer": null, "bias_regularizer": null, "activity_regularizer": null, "kernel_constraint": null, "bias_constraint": null}, "inbound_nodes": [[["conv2d_1", 0, 0, {}]]]}, {"name": "concatenate_55", "class_name": "Concatenate", "config": {"name": "concatenate_55", "trainable": true, "axis": -1}, "inbound_nodes": [[["concatenate_54", 0, 0, {}], ["lambda_56", 0, 0, {}]]]}, {"name": "lambda_57", "class_name": "Lambda", "config": {"name": "lambda_57", "trainable": true, "function": ["4wEAAAAAAAAAAQAAAAUAAABTAAAAcxAAAAB0AGoBfABkBGQCZAONA1MAKQVO6QEAAABUKQLaBGF4\naXPaCGtlZXBkaW1z6f////8pAtoBS9oDbWF4KQHaAXipAHIIAAAA+kIvc2NyYXRjaC96Z2djOS9E\nTkNPTjQvYXJjaGl0ZWN0dXJlX2Rpc3RhbmNlL2xpYi9Nb2RlbF9jb25zdHJ1Y3QucHnaCDxsYW1i\nZGE+7wAAAPMAAAAA\n", null, null], "function_type": "lambda", "output_shape": null, "output_shape_type": "raw", "arguments": {}}, "inbound_nodes": [[["activation_58", 0, 0, {}]]]}, {"name": "activation_59", "class_name": "Activation", "config": {"name": "activation_59", "trainable": true, "activation": "relu"}, "inbound_nodes": [[["conv2d_59", 0, 0, {}]]]}, {"name": "conv2d_60", "class_name": "Conv2D", "config": {"name": "conv2d_60", "trainable": true, "filters": 4, "kernel_size": [1, 1], "strides": [1, 1], "padding": "same", "data_format": "channels_last", "dilation_rate": [1, 1], "activation": "linear", "use_bias": true, "kernel_initializer": {"class_name": "VarianceScaling", "config": {"scale": 1.0, "mode": "fan_avg", "distribution": "uniform", "seed": null}}, "bias_initializer": {"class_name": "Zeros", "config": {}}, "kernel_regularizer": null, "bias_regularizer": null, "activity_regularizer": null, "kernel_constraint": null, "bias_constraint": null}, "inbound_nodes": [[["conv2d_1", 0, 0, {}]]]}, {"name": "concatenate_56", "class_name": "Concatenate", "config": {"name": "concatenate_56", "trainable": true, "axis": -1}, "inbound_nodes": [[["concatenate_55", 0, 0, {}], ["lambda_57", 0, 0, {}]]]}, {"name": "lambda_58", "class_name": "Lambda", "config": {"name": "lambda_58", "trainable": true, "function": ["4wEAAAAAAAAAAQAAAAUAAABTAAAAcxAAAAB0AGoBfABkBGQCZAONA1MAKQVO6QEAAABUKQLaBGF4\naXPaCGtlZXBkaW1z6f////8pAtoBS9oDbWF4KQHaAXipAHIIAAAA+kIvc2NyYXRjaC96Z2djOS9E\nTkNPTjQvYXJjaGl0ZWN0dXJlX2Rpc3RhbmNlL2xpYi9Nb2RlbF9jb25zdHJ1Y3QucHnaCDxsYW1i\nZGE+7wAAAPMAAAAA\n", null, null], "function_type": "lambda", "output_shape": null, "output_shape_type": "raw", "arguments": {}}, "inbound_nodes": [[["activation_59", 0, 0, {}]]]}, {"name": "activation_60", "class_name": "Activation", "config": {"name": "activation_60", "trainable": true, "activation": "relu"}, "inbound_nodes": [[["conv2d_60", 0, 0, {}]]]}, {"name": "conv2d_61", "class_name": "Conv2D", "config": {"name": "conv2d_61", "trainable": true, "filters": 4, "kernel_size": [1, 1], "strides": [1, 1], "padding": "same", "data_format": "channels_last", "dilation_rate": [1, 1], "activation": "linear", "use_bias": true, "kernel_initializer": {"class_name": "VarianceScaling", "config": {"scale": 1.0, "mode": "fan_avg", "distribution": "uniform", "seed": null}}, "bias_initializer": {"class_name": "Zeros", "config": {}}, "kernel_regularizer": null, "bias_regularizer": null, "activity_regularizer": null, "kernel_constraint": null, "bias_constraint": null}, "inbound_nodes": [[["conv2d_1", 0, 0, {}]]]}, {"name": "concatenate_57", "class_name": "Concatenate", "config": {"name": "concatenate_57", "trainable": true, "axis": -1}, "inbound_nodes": [[["concatenate_56", 0, 0, {}], ["lambda_58", 0, 0, {}]]]}, {"name": "lambda_59", "class_name": "Lambda", "config": {"name": "lambda_59", "trainable": true, "function": ["4wEAAAAAAAAAAQAAAAUAAABTAAAAcxAAAAB0AGoBfABkBGQCZAONA1MAKQVO6QEAAABUKQLaBGF4\naXPaCGtlZXBkaW1z6f////8pAtoBS9oDbWF4KQHaAXipAHIIAAAA+kIvc2NyYXRjaC96Z2djOS9E\nTkNPTjQvYXJjaGl0ZWN0dXJlX2Rpc3RhbmNlL2xpYi9Nb2RlbF9jb25zdHJ1Y3QucHnaCDxsYW1i\nZGE+7wAAAPMAAAAA\n", null, null], "function_type": "lambda", "output_shape": null, "output_shape_type": "raw", "arguments": {}}, "inbound_nodes": [[["activation_60", 0, 0, {}]]]}, {"name": "activation_61", "class_name": "Activation", "config": {"name": "activation_61", "trainable": true, "activation": "relu"}, "inbound_nodes": [[["conv2d_61", 0, 0, {}]]]}, {"name": "conv2d_62", "class_name": "Conv2D", "config": {"name": "conv2d_62", "trainable": true, "filters": 4, "kernel_size": [1, 1], "strides": [1, 1], "padding": "same", "data_format": "channels_last", "dilation_rate": [1, 1], "activation": "linear", "use_bias": true, "kernel_initializer": {"class_name": "VarianceScaling", "config": {"scale": 1.0, "mode": "fan_avg", "distribution": "uniform", "seed": null}}, "bias_initializer": {"class_name": "Zeros", "config": {}}, "kernel_regularizer": null, "bias_regularizer": null, "activity_regularizer": null, "kernel_constraint": null, "bias_constraint": null}, "inbound_nodes": [[["conv2d_1", 0, 0, {}]]]}, {"name": "concatenate_58", "class_name": "Concatenate", "config": {"name": "concatenate_58", "trainable": true, "axis": -1}, "inbound_nodes": [[["concatenate_57", 0, 0, {}], ["lambda_59", 0, 0, {}]]]}, {"name": "lambda_60", "class_name": "Lambda", "config": {"name": "lambda_60", "trainable": true, "function": ["4wEAAAAAAAAAAQAAAAUAAABTAAAAcxAAAAB0AGoBfABkBGQCZAONA1MAKQVO6QEAAABUKQLaBGF4\naXPaCGtlZXBkaW1z6f////8pAtoBS9oDbWF4KQHaAXipAHIIAAAA+kIvc2NyYXRjaC96Z2djOS9E\nTkNPTjQvYXJjaGl0ZWN0dXJlX2Rpc3RhbmNlL2xpYi9Nb2RlbF9jb25zdHJ1Y3QucHnaCDxsYW1i\nZGE+7wAAAPMAAAAA\n", null, null], "function_type": "lambda", "output_shape": null, "output_shape_type": "raw", "arguments": {}}, "inbound_nodes": [[["activation_61", 0, 0, {}]]]}, {"name": "activation_62", "class_name": "Activation", "config": {"name": "activation_62", "trainable": true, "activation": "relu"}, "inbound_nodes": [[["conv2d_62", 0, 0, {}]]]}, {"name": "conv2d_63", "class_name": "Conv2D", "config": {"name": "conv2d_63", "trainable": true, "filters": 4, "kernel_size": [1, 1], "strides": [1, 1], "padding": "same", "data_format": "channels_last", "dilation_rate": [1, 1], "activation": "linear", "use_bias": true, "kernel_initializer": {"class_name": "VarianceScaling", "config": {"scale": 1.0, "mode": "fan_avg", "distribution": "uniform", "seed": null}}, "bias_initializer": {"class_name": "Zeros", "config": {}}, "kernel_regularizer": null, "bias_regularizer": null, "activity_regularizer": null, "kernel_constraint": null, "bias_constraint": null}, "inbound_nodes": [[["conv2d_1", 0, 0, {}]]]}, {"name": "concatenate_59", "class_name": "Concatenate", "config": {"name": "concatenate_59", "trainable": true, "axis": -1}, "inbound_nodes": [[["concatenate_58", 0, 0, {}], ["lambda_60", 0, 0, {}]]]}, {"name": "lambda_61", "class_name": "Lambda", "config": {"name": "lambda_61", "trainable": true, "function": ["4wEAAAAAAAAAAQAAAAUAAABTAAAAcxAAAAB0AGoBfABkBGQCZAONA1MAKQVO6QEAAABUKQLaBGF4\naXPaCGtlZXBkaW1z6f////8pAtoBS9oDbWF4KQHaAXipAHIIAAAA+kIvc2NyYXRjaC96Z2djOS9E\nTkNPTjQvYXJjaGl0ZWN0dXJlX2Rpc3RhbmNlL2xpYi9Nb2RlbF9jb25zdHJ1Y3QucHnaCDxsYW1i\nZGE+7wAAAPMAAAAA\n", null, null], "function_type": "lambda", "output_shape": null, "output_shape_type": "raw", "arguments": {}}, "inbound_nodes": [[["activation_62", 0, 0, {}]]]}, {"name": "activation_63", "class_name": "Activation", "config": {"name": "activation_63", "trainable": true, "activation": "relu"}, "inbound_nodes": [[["conv2d_63", 0, 0, {}]]]}, {"name": "conv2d_64", "class_name": "Conv2D", "config": {"name": "conv2d_64", "trainable": true, "filters": 4, "kernel_size": [1, 1], "strides": [1, 1], "padding": "same", "data_format": "channels_last", "dilation_rate": [1, 1], "activation": "linear", "use_bias": true, "kernel_initializer": {"class_name": "VarianceScaling", "config": {"scale": 1.0, "mode": "fan_avg", "distribution": "uniform", "seed": null}}, "bias_initializer": {"class_name": "Zeros", "config": {}}, "kernel_regularizer": null, "bias_regularizer": null, "activity_regularizer": null, "kernel_constraint": null, "bias_constraint": null}, "inbound_nodes": [[["conv2d_1", 0, 0, {}]]]}, {"name": "concatenate_60", "class_name": "Concatenate", "config": {"name": "concatenate_60", "trainable": true, "axis": -1}, "inbound_nodes": [[["concatenate_59", 0, 0, {}], ["lambda_61", 0, 0, {}]]]}, {"name": "lambda_62", "class_name": "Lambda", "config": {"name": "lambda_62", "trainable": true, "function": ["4wEAAAAAAAAAAQAAAAUAAABTAAAAcxAAAAB0AGoBfABkBGQCZAONA1MAKQVO6QEAAABUKQLaBGF4\naXPaCGtlZXBkaW1z6f////8pAtoBS9oDbWF4KQHaAXipAHIIAAAA+kIvc2NyYXRjaC96Z2djOS9E\nTkNPTjQvYXJjaGl0ZWN0dXJlX2Rpc3RhbmNlL2xpYi9Nb2RlbF9jb25zdHJ1Y3QucHnaCDxsYW1i\nZGE+7wAAAPMAAAAA\n", null, null], "function_type": "lambda", "output_shape": null, "output_shape_type": "raw", "arguments": {}}, "inbound_nodes": [[["activation_63", 0, 0, {}]]]}, {"name": "activation_64", "class_name": "Activation", "config": {"name": "activation_64", "trainable": true, "activation": "relu"}, "inbound_nodes": [[["conv2d_64", 0, 0, {}]]]}, {"name": "conv2d_65", "class_name": "Conv2D", "config": {"name": "conv2d_65", "trainable": true, "filters": 4, "kernel_size": [1, 1], "strides": [1, 1], "padding": "same", "data_format": "channels_last", "dilation_rate": [1, 1], "activation": "linear", "use_bias": true, "kernel_initializer": {"class_name": "VarianceScaling", "config": {"scale": 1.0, "mode": "fan_avg", "distribution": "uniform", "seed": null}}, "bias_initializer": {"class_name": "Zeros", "config": {}}, "kernel_regularizer": null, "bias_regularizer": null, "activity_regularizer": null, "kernel_constraint": null, "bias_constraint": null}, "inbound_nodes": [[["conv2d_1", 0, 0, {}]]]}, {"name": "concatenate_61", "class_name": "Concatenate", "config": {"name": "concatenate_61", "trainable": true, "axis": -1}, "inbound_nodes": [[["concatenate_60", 0, 0, {}], ["lambda_62", 0, 0, {}]]]}, {"name": "lambda_63", "class_name": "Lambda", "config": {"name": "lambda_63", "trainable": true, "function": ["4wEAAAAAAAAAAQAAAAUAAABTAAAAcxAAAAB0AGoBfABkBGQCZAONA1MAKQVO6QEAAABUKQLaBGF4\naXPaCGtlZXBkaW1z6f////8pAtoBS9oDbWF4KQHaAXipAHIIAAAA+kIvc2NyYXRjaC96Z2djOS9E\nTkNPTjQvYXJjaGl0ZWN0dXJlX2Rpc3RhbmNlL2xpYi9Nb2RlbF9jb25zdHJ1Y3QucHnaCDxsYW1i\nZGE+7wAAAPMAAAAA\n", null, null], "function_type": "lambda", "output_shape": null, "output_shape_type": "raw", "arguments": {}}, "inbound_nodes": [[["activation_64", 0, 0, {}]]]}, {"name": "activation_65", "class_name": "Activation", "config": {"name": "activation_65", "trainable": true, "activation": "relu"}, "inbound_nodes": [[["conv2d_65", 0, 0, {}]]]}, {"name": "concatenate_62", "class_name": "Concatenate", "config": {"name": "concatenate_62", "trainable": true, "axis": -1}, "inbound_nodes": [[["concatenate_61", 0, 0, {}], ["lambda_63", 0, 0, {}]]]}, {"name": "lambda_64", "class_name": "Lambda", "config": {"name": "lambda_64", "trainable": true, "function": ["4wEAAAAAAAAAAQAAAAUAAABTAAAAcxAAAAB0AGoBfABkBGQCZAONA1MAKQVO6QEAAABUKQLaBGF4\naXPaCGtlZXBkaW1z6f////8pAtoBS9oDbWF4KQHaAXipAHIIAAAA+kIvc2NyYXRjaC96Z2djOS9E\nTkNPTjQvYXJjaGl0ZWN0dXJlX2Rpc3RhbmNlL2xpYi9Nb2RlbF9jb25zdHJ1Y3QucHnaCDxsYW1i\nZGE+7wAAAPMAAAAA\n", null, null], "function_type": "lambda", "output_shape": null, "output_shape_type": "raw", "arguments": {}}, "inbound_nodes": [[["activation_65", 0, 0, {}]]]}, {"name": "concatenate_63", "class_name": "Concatenate", "config": {"name": "concatenate_63", "trainable": true, "axis": -1}, "inbound_nodes": [[["concatenate_62", 0, 0, {}], ["lambda_64", 0, 0, {}]]]}, {"name": "conv2d_66", "class_name": "Conv2D", "config": {"name": "conv2d_66", "trainable": true, "filters": 64, "kernel_size": [7, 7], "strides": [1, 1], "padding": "same", "data_format": "channels_last", "dilation_rate": [1, 1], "activation": "linear", "use_bias": true, "kernel_initializer": {"class_name": "VarianceScaling", "config": {"scale": 2.0, "mode": "fan_in", "distribution": "normal", "seed": null}}, "bias_initializer": {"class_name": "Zeros", "config": {}}, "kernel_regularizer": {"class_name": "L1L2", "config": {"l1": 0.0, "l2": 9.999999747378752e-05}}, "bias_regularizer": null, "activity_regularizer": null, "kernel_constraint": null, "bias_constraint": null}, "inbound_nodes": [[["concatenate_63", 0, 0, {}]]]}, {"name": "instance_normalization_2", "class_name": "InstanceNormalization", "config": {"name": "instance_normalization_2", "trainable": true}, "inbound_nodes": [[["conv2d_66", 0, 0, {}]]]}, {"name": "activation_66", "class_name": "Activation", "config": {"name": "activation_66", "trainable": true, "activation": "relu"}, "inbound_nodes": [[["instance_normalization_2", 0, 0, {}]]]}, {"name": "res0a_branch2a", "class_name": "Conv2D", "config": {"name": "res0a_branch2a", "trainable": true, "filters": 64, "kernel_size": [1, 1], "strides": [1, 1], "padding": "same", "data_format": "channels_last", "dilation_rate": [1, 1], "activation": "linear", "use_bias": true, "kernel_initializer": {"class_name": "VarianceScaling", "config": {"scale": 2.0, "mode": "fan_in", "distribution": "normal", "seed": null}}, "bias_initializer": {"class_name": "Zeros", "config": {}}, "kernel_regularizer": {"class_name": "L1L2", "config": {"l1": 0.0, "l2": 9.999999747378752e-05}}, "bias_regularizer": null, "activity_regularizer": null, "kernel_constraint": null, "bias_constraint": null}, "inbound_nodes": [[["activation_66", 0, 0, {}]]]}, {"name": "instance_normalization_3", "class_name": "InstanceNormalization", "config": {"name": "instance_normalization_3", "trainable": true}, "inbound_nodes": [[["res0a_branch2a", 0, 0, {}]]]}, {"name": "activation_67", "class_name": "Activation", "config": {"name": "activation_67", "trainable": true, "activation": "relu"}, "inbound_nodes": [[["instance_normalization_3", 0, 0, {}]]]}, {"name": "conv2d_67", "class_name": "Conv2D", "config": {"name": "conv2d_67", "trainable": true, "filters": 64, "kernel_size": [3, 3], "strides": [1, 1], "padding": "same", "data_format": "channels_last", "dilation_rate": [1, 1], "activation": "linear", "use_bias": true, "kernel_initializer": {"class_name": "VarianceScaling", "config": {"scale": 2.0, "mode": "fan_in", "distribution": "normal", "seed": null}}, "bias_initializer": {"class_name": "Zeros", "config": {}}, "kernel_regularizer": null, "bias_regularizer": null, "activity_regularizer": null, "kernel_constraint": null, "bias_constraint": null}, "inbound_nodes": [[["activation_67", 0, 0, {}]]]}, {"name": "instance_normalization_4", "class_name": "InstanceNormalization", "config": {"name": "instance_normalization_4", "trainable": true}, "inbound_nodes": [[["conv2d_67", 0, 0, {}]]]}, {"name": "activation_68", "class_name": "Activation", "config": {"name": "activation_68", "trainable": true, "activation": "relu"}, "inbound_nodes": [[["instance_normalization_4", 0, 0, {}]]]}, {"name": "conv2d_68", "class_name": "Conv2D", "config": {"name": "conv2d_68", "trainable": true, "filters": 128, "kernel_size": [1, 1], "strides": [1, 1], "padding": "same", "data_format": "channels_last", "dilation_rate": [1, 1], "activation": "linear", "use_bias": true, "kernel_initializer": {"class_name": "VarianceScaling", "config": {"scale": 2.0, "mode": "fan_in", "distribution": "normal", "seed": null}}, "bias_initializer": {"class_name": "Zeros", "config": {}}, "kernel_regularizer": null, "bias_regularizer": null, "activity_regularizer": null, "kernel_constraint": null, "bias_constraint": null}, "inbound_nodes": [[["activation_68", 0, 0, {}]]]}, {"name": "global_average_pooling2d_1", "class_name": "GlobalAveragePooling2D", "config": {"name": "global_average_pooling2d_1", "trainable": true, "data_format": "channels_last"}, "inbound_nodes": [[["conv2d_68", 0, 0, {}]]]}, {"name": "reshape_1", "class_name": "Reshape", "config": {"name": "reshape_1", "trainable": true, "target_shape": [1, 1, 128]}, "inbound_nodes": [[["global_average_pooling2d_1", 0, 0, {}]]]}, {"name": "dense_1", "class_name": "Dense", "config": {"name": "dense_1", "trainable": true, "units": 8, "activation": "relu", "use_bias": false, "kernel_initializer": {"class_name": "VarianceScaling", "config": {"scale": 2.0, "mode": "fan_in", "distribution": "normal", "seed": null}}, "bias_initializer": {"class_name": "Zeros", "config": {}}, "kernel_regularizer": null, "bias_regularizer": null, "activity_regularizer": null, "kernel_constraint": null, "bias_constraint": null}, "inbound_nodes": [[["reshape_1", 0, 0, {}]]]}, {"name": "dense_2", "class_name": "Dense", "config": {"name": "dense_2", "trainable": true, "units": 128, "activation": "sigmoid", "use_bias": false, "kernel_initializer": {"class_name": "VarianceScaling", "config": {"scale": 2.0, "mode": "fan_in", "distribution": "normal", "seed": null}}, "bias_initializer": {"class_name": "Zeros", "config": {}}, "kernel_regularizer": null, "bias_regularizer": null, "activity_regularizer": null, "kernel_constraint": null, "bias_constraint": null}, "inbound_nodes": [[["dense_1", 0, 0, {}]]]}, {"name": "conv2d_69", "class_name": "Conv2D", "config": {"name": "conv2d_69", "trainable": true, "filters": 128, "kernel_size": [1, 1], "strides": [1, 1], "padding": "valid", "data_format": "channels_last", "dilation_rate": [1, 1], "activation": "linear", "use_bias": true, "kernel_initializer": {"class_name": "VarianceScaling", "config": {"scale": 2.0, "mode": "fan_in", "distribution": "normal", "seed": null}}, "bias_initializer": {"class_name": "Zeros", "config": {}}, "kernel_regularizer": null, "bias_regularizer": null, "activity_regularizer": null, "kernel_constraint": null, "bias_constraint": null}, "inbound_nodes": [[["activation_66", 0, 0, {}]]]}, {"name": "multiply_1", "class_name": "Multiply", "config": {"name": "multiply_1", "trainable": true}, "inbound_nodes": [[["conv2d_68", 0, 0, {}], ["dense_2", 0, 0, {}]]]}, {"name": "add_1", "class_name": "Add", "config": {"name": "add_1", "trainable": true}, "inbound_nodes": [[["conv2d_69", 0, 0, {}], ["multiply_1", 0, 0, {}]]]}, {"name": "instance_normalization_5", "class_name": "InstanceNormalization", "config": {"name": "instance_normalization_5", "trainable": true}, "inbound_nodes": [[["add_1", 0, 0, {}]]]}, {"name": "activation_69", "class_name": "Activation", "config": {"name": "activation_69", "trainable": true, "activation": "relu"}, "inbound_nodes": [[["instance_normalization_5", 0, 0, {}]]]}, {"name": "conv2d_70", "class_name": "Conv2D", "config": {"name": "conv2d_70", "trainable": true, "filters": 64, "kernel_size": [1, 1], "strides": [1, 1], "padding": "same", "data_format": "channels_last", "dilation_rate": [1, 1], "activation": "linear", "use_bias": true, "kernel_initializer": {"class_name": "VarianceScaling", "config": {"scale": 2.0, "mode": "fan_in", "distribution": "normal", "seed": null}}, "bias_initializer": {"class_name": "Zeros", "config": {}}, "kernel_regularizer": null, "bias_regularizer": null, "activity_regularizer": null, "kernel_constraint": null, "bias_constraint": null}, "inbound_nodes": [[["activation_69", 0, 0, {}]]]}, {"name": "instance_normalization_6", "class_name": "InstanceNormalization", "config": {"name": "instance_normalization_6", "trainable": true}, "inbound_nodes": [[["conv2d_70", 0, 0, {}]]]}, {"name": "activation_70", "class_name": "Activation", "config": {"name": "activation_70", "trainable": true, "activation": "relu"}, "inbound_nodes": [[["instance_normalization_6", 0, 0, {}]]]}, {"name": "conv2d_71", "class_name": "Conv2D", "config": {"name": "conv2d_71", "trainable": true, "filters": 64, "kernel_size": [3, 3], "strides": [1, 1], "padding": "same", "data_format": "channels_last", "dilation_rate": [1, 1], "activation": "linear", "use_bias": true, "kernel_initializer": {"class_name": "VarianceScaling", "config": {"scale": 2.0, "mode": "fan_in", "distribution": "normal", "seed": null}}, "bias_initializer": {"class_name": "Zeros", "config": {}}, "kernel_regularizer": null, "bias_regularizer": null, "activity_regularizer": null, "kernel_constraint": null, "bias_constraint": null}, "inbound_nodes": [[["activation_70", 0, 0, {}]]]}, {"name": "instance_normalization_7", "class_name": "InstanceNormalization", "config": {"name": "instance_normalization_7", "trainable": true}, "inbound_nodes": [[["conv2d_71", 0, 0, {}]]]}, {"name": "activation_71", "class_name": "Activation", "config": {"name": "activation_71", "trainable": true, "activation": "relu"}, "inbound_nodes": [[["instance_normalization_7", 0, 0, {}]]]}, {"name": "conv2d_72", "class_name": "Conv2D", "config": {"name": "conv2d_72", "trainable": true, "filters": 128, "kernel_size": [1, 1], "strides": [1, 1], "padding": "same", "data_format": "channels_last", "dilation_rate": [1, 1], "activation": "linear", "use_bias": true, "kernel_initializer": {"class_name": "VarianceScaling", "config": {"scale": 2.0, "mode": "fan_in", "distribution": "normal", "seed": null}}, "bias_initializer": {"class_name": "Zeros", "config": {}}, "kernel_regularizer": null, "bias_regularizer": null, "activity_regularizer": null, "kernel_constraint": null, "bias_constraint": null}, "inbound_nodes": [[["activation_71", 0, 0, {}]]]}, {"name": "global_average_pooling2d_2", "class_name": "GlobalAveragePooling2D", "config": {"name": "global_average_pooling2d_2", "trainable": true, "data_format": "channels_last"}, "inbound_nodes": [[["conv2d_72", 0, 0, {}]]]}, {"name": "reshape_2", "class_name": "Reshape", "config": {"name": "reshape_2", "trainable": true, "target_shape": [1, 1, 128]}, "inbound_nodes": [[["global_average_pooling2d_2", 0, 0, {}]]]}, {"name": "dense_3", "class_name": "Dense", "config": {"name": "dense_3", "trainable": true, "units": 8, "activation": "relu", "use_bias": false, "kernel_initializer": {"class_name": "VarianceScaling", "config": {"scale": 2.0, "mode": "fan_in", "distribution": "normal", "seed": null}}, "bias_initializer": {"class_name": "Zeros", "config": {}}, "kernel_regularizer": null, "bias_regularizer": null, "activity_regularizer": null, "kernel_constraint": null, "bias_constraint": null}, "inbound_nodes": [[["reshape_2", 0, 0, {}]]]}, {"name": "dense_4", "class_name": "Dense", "config": {"name": "dense_4", "trainable": true, "units": 128, "activation": "sigmoid", "use_bias": false, "kernel_initializer": {"class_name": "VarianceScaling", "config": {"scale": 2.0, "mode": "fan_in", "distribution": "normal", "seed": null}}, "bias_initializer": {"class_name": "Zeros", "config": {}}, "kernel_regularizer": null, "bias_regularizer": null, "activity_regularizer": null, "kernel_constraint": null, "bias_constraint": null}, "inbound_nodes": [[["dense_3", 0, 0, {}]]]}, {"name": "multiply_2", "class_name": "Multiply", "config": {"name": "multiply_2", "trainable": true}, "inbound_nodes": [[["conv2d_72", 0, 0, {}], ["dense_4", 0, 0, {}]]]}, {"name": "add_2", "class_name": "Add", "config": {"name": "add_2", "trainable": true}, "inbound_nodes": [[["add_1", 0, 0, {}], ["multiply_2", 0, 0, {}]]]}, {"name": "instance_normalization_8", "class_name": "InstanceNormalization", "config": {"name": "instance_normalization_8", "trainable": true}, "inbound_nodes": [[["add_2", 0, 0, {}]]]}, {"name": "activation_72", "class_name": "Activation", "config": {"name": "activation_72", "trainable": true, "activation": "relu"}, "inbound_nodes": [[["instance_normalization_8", 0, 0, {}]]]}, {"name": "conv2d_73", "class_name": "Conv2D", "config": {"name": "conv2d_73", "trainable": true, "filters": 64, "kernel_size": [1, 1], "strides": [1, 1], "padding": "same", "data_format": "channels_last", "dilation_rate": [1, 1], "activation": "linear", "use_bias": true, "kernel_initializer": {"class_name": "VarianceScaling", "config": {"scale": 2.0, "mode": "fan_in", "distribution": "normal", "seed": null}}, "bias_initializer": {"class_name": "Zeros", "config": {}}, "kernel_regularizer": null, "bias_regularizer": null, "activity_regularizer": null, "kernel_constraint": null, "bias_constraint": null}, "inbound_nodes": [[["activation_72", 0, 0, {}]]]}, {"name": "instance_normalization_9", "class_name": "InstanceNormalization", "config": {"name": "instance_normalization_9", "trainable": true}, "inbound_nodes": [[["conv2d_73", 0, 0, {}]]]}, {"name": "activation_73", "class_name": "Activation", "config": {"name": "activation_73", "trainable": true, "activation": "relu"}, "inbound_nodes": [[["instance_normalization_9", 0, 0, {}]]]}, {"name": "conv2d_74", "class_name": "Conv2D", "config": {"name": "conv2d_74", "trainable": true, "filters": 64, "kernel_size": [3, 3], "strides": [1, 1], "padding": "same", "data_format": "channels_last", "dilation_rate": [1, 1], "activation": "linear", "use_bias": true, "kernel_initializer": {"class_name": "VarianceScaling", "config": {"scale": 2.0, "mode": "fan_in", "distribution": "normal", "seed": null}}, "bias_initializer": {"class_name": "Zeros", "config": {}}, "kernel_regularizer": null, "bias_regularizer": null, "activity_regularizer": null, "kernel_constraint": null, "bias_constraint": null}, "inbound_nodes": [[["activation_73", 0, 0, {}]]]}, {"name": "instance_normalization_10", "class_name": "InstanceNormalization", "config": {"name": "instance_normalization_10", "trainable": true}, "inbound_nodes": [[["conv2d_74", 0, 0, {}]]]}, {"name": "activation_74", "class_name": "Activation", "config": {"name": "activation_74", "trainable": true, "activation": "relu"}, "inbound_nodes": [[["instance_normalization_10", 0, 0, {}]]]}, {"name": "conv2d_75", "class_name": "Conv2D", "config": {"name": "conv2d_75", "trainable": true, "filters": 128, "kernel_size": [1, 1], "strides": [1, 1], "padding": "same", "data_format": "channels_last", "dilation_rate": [1, 1], "activation": "linear", "use_bias": true, "kernel_initializer": {"class_name": "VarianceScaling", "config": {"scale": 2.0, "mode": "fan_in", "distribution": "normal", "seed": null}}, "bias_initializer": {"class_name": "Zeros", "config": {}}, "kernel_regularizer": null, "bias_regularizer": null, "activity_regularizer": null, "kernel_constraint": null, "bias_constraint": null}, "inbound_nodes": [[["activation_74", 0, 0, {}]]]}, {"name": "global_average_pooling2d_3", "class_name": "GlobalAveragePooling2D", "config": {"name": "global_average_pooling2d_3", "trainable": true, "data_format": "channels_last"}, "inbound_nodes": [[["conv2d_75", 0, 0, {}]]]}, {"name": "reshape_3", "class_name": "Reshape", "config": {"name": "reshape_3", "trainable": true, "target_shape": [1, 1, 128]}, "inbound_nodes": [[["global_average_pooling2d_3", 0, 0, {}]]]}, {"name": "dense_5", "class_name": "Dense", "config": {"name": "dense_5", "trainable": true, "units": 8, "activation": "relu", "use_bias": false, "kernel_initializer": {"class_name": "VarianceScaling", "config": {"scale": 2.0, "mode": "fan_in", "distribution": "normal", "seed": null}}, "bias_initializer": {"class_name": "Zeros", "config": {}}, "kernel_regularizer": null, "bias_regularizer": null, "activity_regularizer": null, "kernel_constraint": null, "bias_constraint": null}, "inbound_nodes": [[["reshape_3", 0, 0, {}]]]}, {"name": "dense_6", "class_name": "Dense", "config": {"name": "dense_6", "trainable": true, "units": 128, "activation": "sigmoid", "use_bias": false, "kernel_initializer": {"class_name": "VarianceScaling", "config": {"scale": 2.0, "mode": "fan_in", "distribution": "normal", "seed": null}}, "bias_initializer": {"class_name": "Zeros", "config": {}}, "kernel_regularizer": null, "bias_regularizer": null, "activity_regularizer": null, "kernel_constraint": null, "bias_constraint": null}, "inbound_nodes": [[["dense_5", 0, 0, {}]]]}, {"name": "multiply_3", "class_name": "Multiply", "config": {"name": "multiply_3", "trainable": true}, "inbound_nodes": [[["conv2d_75", 0, 0, {}], ["dense_6", 0, 0, {}]]]}, {"name": "add_3", "class_name": "Add", "config": {"name": "add_3", "trainable": true}, "inbound_nodes": [[["add_2", 0, 0, {}], ["multiply_3", 0, 0, {}]]]}, {"name": "instance_normalization_11", "class_name": "InstanceNormalization", "config": {"name": "instance_normalization_11", "trainable": true}, "inbound_nodes": [[["add_3", 0, 0, {}]]]}, {"name": "activation_75", "class_name": "Activation", "config": {"name": "activation_75", "trainable": true, "activation": "relu"}, "inbound_nodes": [[["instance_normalization_11", 0, 0, {}]]]}, {"name": "conv2d_76", "class_name": "Conv2D", "config": {"name": "conv2d_76", "trainable": true, "filters": 64, "kernel_size": [1, 1], "strides": [1, 1], "padding": "same", "data_format": "channels_last", "dilation_rate": [1, 1], "activation": "linear", "use_bias": true, "kernel_initializer": {"class_name": "VarianceScaling", "config": {"scale": 2.0, "mode": "fan_in", "distribution": "normal", "seed": null}}, "bias_initializer": {"class_name": "Zeros", "config": {}}, "kernel_regularizer": null, "bias_regularizer": null, "activity_regularizer": null, "kernel_constraint": null, "bias_constraint": null}, "inbound_nodes": [[["activation_75", 0, 0, {}]]]}, {"name": "instance_normalization_12", "class_name": "InstanceNormalization", "config": {"name": "instance_normalization_12", "trainable": true}, "inbound_nodes": [[["conv2d_76", 0, 0, {}]]]}, {"name": "activation_76", "class_name": "Activation", "config": {"name": "activation_76", "trainable": true, "activation": "relu"}, "inbound_nodes": [[["instance_normalization_12", 0, 0, {}]]]}, {"name": "conv2d_77", "class_name": "Conv2D", "config": {"name": "conv2d_77", "trainable": true, "filters": 64, "kernel_size": [3, 3], "strides": [1, 1], "padding": "same", "data_format": "channels_last", "dilation_rate": [1, 1], "activation": "linear", "use_bias": true, "kernel_initializer": {"class_name": "VarianceScaling", "config": {"scale": 2.0, "mode": "fan_in", "distribution": "normal", "seed": null}}, "bias_initializer": {"class_name": "Zeros", "config": {}}, "kernel_regularizer": null, "bias_regularizer": null, "activity_regularizer": null, "kernel_constraint": null, "bias_constraint": null}, "inbound_nodes": [[["activation_76", 0, 0, {}]]]}, {"name": "instance_normalization_13", "class_name": "InstanceNormalization", "config": {"name": "instance_normalization_13", "trainable": true}, "inbound_nodes": [[["conv2d_77", 0, 0, {}]]]}, {"name": "activation_77", "class_name": "Activation", "config": {"name": "activation_77", "trainable": true, "activation": "relu"}, "inbound_nodes": [[["instance_normalization_13", 0, 0, {}]]]}, {"name": "conv2d_78", "class_name": "Conv2D", "config": {"name": "conv2d_78", "trainable": true, "filters": 128, "kernel_size": [1, 1], "strides": [1, 1], "padding": "same", "data_format": "channels_last", "dilation_rate": [1, 1], "activation": "linear", "use_bias": true, "kernel_initializer": {"class_name": "VarianceScaling", "config": {"scale": 2.0, "mode": "fan_in", "distribution": "normal", "seed": null}}, "bias_initializer": {"class_name": "Zeros", "config": {}}, "kernel_regularizer": null, "bias_regularizer": null, "activity_regularizer": null, "kernel_constraint": null, "bias_constraint": null}, "inbound_nodes": [[["activation_77", 0, 0, {}]]]}, {"name": "global_average_pooling2d_4", "class_name": "GlobalAveragePooling2D", "config": {"name": "global_average_pooling2d_4", "trainable": true, "data_format": "channels_last"}, "inbound_nodes": [[["conv2d_78", 0, 0, {}]]]}, {"name": "reshape_4", "class_name": "Reshape", "config": {"name": "reshape_4", "trainable": true, "target_shape": [1, 1, 128]}, "inbound_nodes": [[["global_average_pooling2d_4", 0, 0, {}]]]}, {"name": "dense_7", "class_name": "Dense", "config": {"name": "dense_7", "trainable": true, "units": 8, "activation": "relu", "use_bias": false, "kernel_initializer": {"class_name": "VarianceScaling", "config": {"scale": 2.0, "mode": "fan_in", "distribution": "normal", "seed": null}}, "bias_initializer": {"class_name": "Zeros", "config": {}}, "kernel_regularizer": null, "bias_regularizer": null, "activity_regularizer": null, "kernel_constraint": null, "bias_constraint": null}, "inbound_nodes": [[["reshape_4", 0, 0, {}]]]}, {"name": "dense_8", "class_name": "Dense", "config": {"name": "dense_8", "trainable": true, "units": 128, "activation": "sigmoid", "use_bias": false, "kernel_initializer": {"class_name": "VarianceScaling", "config": {"scale": 2.0, "mode": "fan_in", "distribution": "normal", "seed": null}}, "bias_initializer": {"class_name": "Zeros", "config": {}}, "kernel_regularizer": null, "bias_regularizer": null, "activity_regularizer": null, "kernel_constraint": null, "bias_constraint": null}, "inbound_nodes": [[["dense_7", 0, 0, {}]]]}, {"name": "multiply_4", "class_name": "Multiply", "config": {"name": "multiply_4", "trainable": true}, "inbound_nodes": [[["conv2d_78", 0, 0, {}], ["dense_8", 0, 0, {}]]]}, {"name": "add_4", "class_name": "Add", "config": {"name": "add_4", "trainable": true}, "inbound_nodes": [[["add_3", 0, 0, {}], ["multiply_4", 0, 0, {}]]]}, {"name": "instance_normalization_14", "class_name": "InstanceNormalization", "config": {"name": "instance_normalization_14", "trainable": true}, "inbound_nodes": [[["add_4", 0, 0, {}]]]}, {"name": "activation_78", "class_name": "Activation", "config": {"name": "activation_78", "trainable": true, "activation": "relu"}, "inbound_nodes": [[["instance_normalization_14", 0, 0, {}]]]}, {"name": "conv2d_79", "class_name": "Conv2D", "config": {"name": "conv2d_79", "trainable": true, "filters": 64, "kernel_size": [1, 1], "strides": [1, 1], "padding": "same", "data_format": "channels_last", "dilation_rate": [1, 1], "activation": "linear", "use_bias": true, "kernel_initializer": {"class_name": "VarianceScaling", "config": {"scale": 2.0, "mode": "fan_in", "distribution": "normal", "seed": null}}, "bias_initializer": {"class_name": "Zeros", "config": {}}, "kernel_regularizer": null, "bias_regularizer": null, "activity_regularizer": null, "kernel_constraint": null, "bias_constraint": null}, "inbound_nodes": [[["activation_78", 0, 0, {}]]]}, {"name": "instance_normalization_15", "class_name": "InstanceNormalization", "config": {"name": "instance_normalization_15", "trainable": true}, "inbound_nodes": [[["conv2d_79", 0, 0, {}]]]}, {"name": "activation_79", "class_name": "Activation", "config": {"name": "activation_79", "trainable": true, "activation": "relu"}, "inbound_nodes": [[["instance_normalization_15", 0, 0, {}]]]}, {"name": "conv2d_80", "class_name": "Conv2D", "config": {"name": "conv2d_80", "trainable": true, "filters": 64, "kernel_size": [3, 3], "strides": [1, 1], "padding": "same", "data_format": "channels_last", "dilation_rate": [1, 1], "activation": "linear", "use_bias": true, "kernel_initializer": {"class_name": "VarianceScaling", "config": {"scale": 2.0, "mode": "fan_in", "distribution": "normal", "seed": null}}, "bias_initializer": {"class_name": "Zeros", "config": {}}, "kernel_regularizer": null, "bias_regularizer": null, "activity_regularizer": null, "kernel_constraint": null, "bias_constraint": null}, "inbound_nodes": [[["activation_79", 0, 0, {}]]]}, {"name": "instance_normalization_16", "class_name": "InstanceNormalization", "config": {"name": "instance_normalization_16", "trainable": true}, "inbound_nodes": [[["conv2d_80", 0, 0, {}]]]}, {"name": "activation_80", "class_name": "Activation", "config": {"name": "activation_80", "trainable": true, "activation": "relu"}, "inbound_nodes": [[["instance_normalization_16", 0, 0, {}]]]}, {"name": "conv2d_81", "class_name": "Conv2D", "config": {"name": "conv2d_81", "trainable": true, "filters": 128, "kernel_size": [1, 1], "strides": [1, 1], "padding": "same", "data_format": "channels_last", "dilation_rate": [1, 1], "activation": "linear", "use_bias": true, "kernel_initializer": {"class_name": "VarianceScaling", "config": {"scale": 2.0, "mode": "fan_in", "distribution": "normal", "seed": null}}, "bias_initializer": {"class_name": "Zeros", "config": {}}, "kernel_regularizer": null, "bias_regularizer": null, "activity_regularizer": null, "kernel_constraint": null, "bias_constraint": null}, "inbound_nodes": [[["activation_80", 0, 0, {}]]]}, {"name": "global_average_pooling2d_5", "class_name": "GlobalAveragePooling2D", "config": {"name": "global_average_pooling2d_5", "trainable": true, "data_format": "channels_last"}, "inbound_nodes": [[["conv2d_81", 0, 0, {}]]]}, {"name": "reshape_5", "class_name": "Reshape", "config": {"name": "reshape_5", "trainable": true, "target_shape": [1, 1, 128]}, "inbound_nodes": [[["global_average_pooling2d_5", 0, 0, {}]]]}, {"name": "dense_9", "class_name": "Dense", "config": {"name": "dense_9", "trainable": true, "units": 8, "activation": "relu", "use_bias": false, "kernel_initializer": {"class_name": "VarianceScaling", "config": {"scale": 2.0, "mode": "fan_in", "distribution": "normal", "seed": null}}, "bias_initializer": {"class_name": "Zeros", "config": {}}, "kernel_regularizer": null, "bias_regularizer": null, "activity_regularizer": null, "kernel_constraint": null, "bias_constraint": null}, "inbound_nodes": [[["reshape_5", 0, 0, {}]]]}, {"name": "dense_10", "class_name": "Dense", "config": {"name": "dense_10", "trainable": true, "units": 128, "activation": "sigmoid", "use_bias": false, "kernel_initializer": {"class_name": "VarianceScaling", "config": {"scale": 2.0, "mode": "fan_in", "distribution": "normal", "seed": null}}, "bias_initializer": {"class_name": "Zeros", "config": {}}, "kernel_regularizer": null, "bias_regularizer": null, "activity_regularizer": null, "kernel_constraint": null, "bias_constraint": null}, "inbound_nodes": [[["dense_9", 0, 0, {}]]]}, {"name": "multiply_5", "class_name": "Multiply", "config": {"name": "multiply_5", "trainable": true}, "inbound_nodes": [[["conv2d_81", 0, 0, {}], ["dense_10", 0, 0, {}]]]}, {"name": "add_5", "class_name": "Add", "config": {"name": "add_5", "trainable": true}, "inbound_nodes": [[["add_4", 0, 0, {}], ["multiply_5", 0, 0, {}]]]}, {"name": "instance_normalization_17", "class_name": "InstanceNormalization", "config": {"name": "instance_normalization_17", "trainable": true}, "inbound_nodes": [[["add_5", 0, 0, {}]]]}, {"name": "activation_81", "class_name": "Activation", "config": {"name": "activation_81", "trainable": true, "activation": "relu"}, "inbound_nodes": [[["instance_normalization_17", 0, 0, {}]]]}, {"name": "conv2d_82", "class_name": "Conv2D", "config": {"name": "conv2d_82", "trainable": true, "filters": 64, "kernel_size": [1, 1], "strides": [1, 1], "padding": "same", "data_format": "channels_last", "dilation_rate": [1, 1], "activation": "linear", "use_bias": true, "kernel_initializer": {"class_name": "VarianceScaling", "config": {"scale": 2.0, "mode": "fan_in", "distribution": "normal", "seed": null}}, "bias_initializer": {"class_name": "Zeros", "config": {}}, "kernel_regularizer": null, "bias_regularizer": null, "activity_regularizer": null, "kernel_constraint": null, "bias_constraint": null}, "inbound_nodes": [[["activation_81", 0, 0, {}]]]}, {"name": "instance_normalization_18", "class_name": "InstanceNormalization", "config": {"name": "instance_normalization_18", "trainable": true}, "inbound_nodes": [[["conv2d_82", 0, 0, {}]]]}, {"name": "activation_82", "class_name": "Activation", "config": {"name": "activation_82", "trainable": true, "activation": "relu"}, "inbound_nodes": [[["instance_normalization_18", 0, 0, {}]]]}, {"name": "conv2d_83", "class_name": "Conv2D", "config": {"name": "conv2d_83", "trainable": true, "filters": 64, "kernel_size": [3, 3], "strides": [1, 1], "padding": "same", "data_format": "channels_last", "dilation_rate": [1, 1], "activation": "linear", "use_bias": true, "kernel_initializer": {"class_name": "VarianceScaling", "config": {"scale": 2.0, "mode": "fan_in", "distribution": "normal", "seed": null}}, "bias_initializer": {"class_name": "Zeros", "config": {}}, "kernel_regularizer": null, "bias_regularizer": null, "activity_regularizer": null, "kernel_constraint": null, "bias_constraint": null}, "inbound_nodes": [[["activation_82", 0, 0, {}]]]}, {"name": "instance_normalization_19", "class_name": "InstanceNormalization", "config": {"name": "instance_normalization_19", "trainable": true}, "inbound_nodes": [[["conv2d_83", 0, 0, {}]]]}, {"name": "activation_83", "class_name": "Activation", "config": {"name": "activation_83", "trainable": true, "activation": "relu"}, "inbound_nodes": [[["instance_normalization_19", 0, 0, {}]]]}, {"name": "conv2d_84", "class_name": "Conv2D", "config": {"name": "conv2d_84", "trainable": true, "filters": 128, "kernel_size": [1, 1], "strides": [1, 1], "padding": "same", "data_format": "channels_last", "dilation_rate": [1, 1], "activation": "linear", "use_bias": true, "kernel_initializer": {"class_name": "VarianceScaling", "config": {"scale": 2.0, "mode": "fan_in", "distribution": "normal", "seed": null}}, "bias_initializer": {"class_name": "Zeros", "config": {}}, "kernel_regularizer": null, "bias_regularizer": null, "activity_regularizer": null, "kernel_constraint": null, "bias_constraint": null}, "inbound_nodes": [[["activation_83", 0, 0, {}]]]}, {"name": "global_average_pooling2d_6", "class_name": "GlobalAveragePooling2D", "config": {"name": "global_average_pooling2d_6", "trainable": true, "data_format": "channels_last"}, "inbound_nodes": [[["conv2d_84", 0, 0, {}]]]}, {"name": "reshape_6", "class_name": "Reshape", "config": {"name": "reshape_6", "trainable": true, "target_shape": [1, 1, 128]}, "inbound_nodes": [[["global_average_pooling2d_6", 0, 0, {}]]]}, {"name": "dense_11", "class_name": "Dense", "config": {"name": "dense_11", "trainable": true, "units": 8, "activation": "relu", "use_bias": false, "kernel_initializer": {"class_name": "VarianceScaling", "config": {"scale": 2.0, "mode": "fan_in", "distribution": "normal", "seed": null}}, "bias_initializer": {"class_name": "Zeros", "config": {}}, "kernel_regularizer": null, "bias_regularizer": null, "activity_regularizer": null, "kernel_constraint": null, "bias_constraint": null}, "inbound_nodes": [[["reshape_6", 0, 0, {}]]]}, {"name": "dense_12", "class_name": "Dense", "config": {"name": "dense_12", "trainable": true, "units": 128, "activation": "sigmoid", "use_bias": false, "kernel_initializer": {"class_name": "VarianceScaling", "config": {"scale": 2.0, "mode": "fan_in", "distribution": "normal", "seed": null}}, "bias_initializer": {"class_name": "Zeros", "config": {}}, "kernel_regularizer": null, "bias_regularizer": null, "activity_regularizer": null, "kernel_constraint": null, "bias_constraint": null}, "inbound_nodes": [[["dense_11", 0, 0, {}]]]}, {"name": "multiply_6", "class_name": "Multiply", "config": {"name": "multiply_6", "trainable": true}, "inbound_nodes": [[["conv2d_84", 0, 0, {}], ["dense_12", 0, 0, {}]]]}, {"name": "add_6", "class_name": "Add", "config": {"name": "add_6", "trainable": true}, "inbound_nodes": [[["add_5", 0, 0, {}], ["multiply_6", 0, 0, {}]]]}, {"name": "instance_normalization_20", "class_name": "InstanceNormalization", "config": {"name": "instance_normalization_20", "trainable": true}, "inbound_nodes": [[["add_6", 0, 0, {}]]]}, {"name": "activation_84", "class_name": "Activation", "config": {"name": "activation_84", "trainable": true, "activation": "relu"}, "inbound_nodes": [[["instance_normalization_20", 0, 0, {}]]]}, {"name": "conv2d_85", "class_name": "Conv2D", "config": {"name": "conv2d_85", "trainable": true, "filters": 64, "kernel_size": [1, 1], "strides": [1, 1], "padding": "same", "data_format": "channels_last", "dilation_rate": [1, 1], "activation": "linear", "use_bias": true, "kernel_initializer": {"class_name": "VarianceScaling", "config": {"scale": 2.0, "mode": "fan_in", "distribution": "normal", "seed": null}}, "bias_initializer": {"class_name": "Zeros", "config": {}}, "kernel_regularizer": null, "bias_regularizer": null, "activity_regularizer": null, "kernel_constraint": null, "bias_constraint": null}, "inbound_nodes": [[["activation_84", 0, 0, {}]]]}, {"name": "instance_normalization_21", "class_name": "InstanceNormalization", "config": {"name": "instance_normalization_21", "trainable": true}, "inbound_nodes": [[["conv2d_85", 0, 0, {}]]]}, {"name": "activation_85", "class_name": "Activation", "config": {"name": "activation_85", "trainable": true, "activation": "relu"}, "inbound_nodes": [[["instance_normalization_21", 0, 0, {}]]]}, {"name": "conv2d_86", "class_name": "Conv2D", "config": {"name": "conv2d_86", "trainable": true, "filters": 64, "kernel_size": [3, 3], "strides": [1, 1], "padding": "same", "data_format": "channels_last", "dilation_rate": [1, 1], "activation": "linear", "use_bias": true, "kernel_initializer": {"class_name": "VarianceScaling", "config": {"scale": 2.0, "mode": "fan_in", "distribution": "normal", "seed": null}}, "bias_initializer": {"class_name": "Zeros", "config": {}}, "kernel_regularizer": null, "bias_regularizer": null, "activity_regularizer": null, "kernel_constraint": null, "bias_constraint": null}, "inbound_nodes": [[["activation_85", 0, 0, {}]]]}, {"name": "instance_normalization_22", "class_name": "InstanceNormalization", "config": {"name": "instance_normalization_22", "trainable": true}, "inbound_nodes": [[["conv2d_86", 0, 0, {}]]]}, {"name": "activation_86", "class_name": "Activation", "config": {"name": "activation_86", "trainable": true, "activation": "relu"}, "inbound_nodes": [[["instance_normalization_22", 0, 0, {}]]]}, {"name": "conv2d_87", "class_name": "Conv2D", "config": {"name": "conv2d_87", "trainable": true, "filters": 128, "kernel_size": [1, 1], "strides": [1, 1], "padding": "same", "data_format": "channels_last", "dilation_rate": [1, 1], "activation": "linear", "use_bias": true, "kernel_initializer": {"class_name": "VarianceScaling", "config": {"scale": 2.0, "mode": "fan_in", "distribution": "normal", "seed": null}}, "bias_initializer": {"class_name": "Zeros", "config": {}}, "kernel_regularizer": null, "bias_regularizer": null, "activity_regularizer": null, "kernel_constraint": null, "bias_constraint": null}, "inbound_nodes": [[["activation_86", 0, 0, {}]]]}, {"name": "global_average_pooling2d_7", "class_name": "GlobalAveragePooling2D", "config": {"name": "global_average_pooling2d_7", "trainable": true, "data_format": "channels_last"}, "inbound_nodes": [[["conv2d_87", 0, 0, {}]]]}, {"name": "reshape_7", "class_name": "Reshape", "config": {"name": "reshape_7", "trainable": true, "target_shape": [1, 1, 128]}, "inbound_nodes": [[["global_average_pooling2d_7", 0, 0, {}]]]}, {"name": "dense_13", "class_name": "Dense", "config": {"name": "dense_13", "trainable": true, "units": 8, "activation": "relu", "use_bias": false, "kernel_initializer": {"class_name": "VarianceScaling", "config": {"scale": 2.0, "mode": "fan_in", "distribution": "normal", "seed": null}}, "bias_initializer": {"class_name": "Zeros", "config": {}}, "kernel_regularizer": null, "bias_regularizer": null, "activity_regularizer": null, "kernel_constraint": null, "bias_constraint": null}, "inbound_nodes": [[["reshape_7", 0, 0, {}]]]}, {"name": "dense_14", "class_name": "Dense", "config": {"name": "dense_14", "trainable": true, "units": 128, "activation": "sigmoid", "use_bias": false, "kernel_initializer": {"class_name": "VarianceScaling", "config": {"scale": 2.0, "mode": "fan_in", "distribution": "normal", "seed": null}}, "bias_initializer": {"class_name": "Zeros", "config": {}}, "kernel_regularizer": null, "bias_regularizer": null, "activity_regularizer": null, "kernel_constraint": null, "bias_constraint": null}, "inbound_nodes": [[["dense_13", 0, 0, {}]]]}, {"name": "multiply_7", "class_name": "Multiply", "config": {"name": "multiply_7", "trainable": true}, "inbound_nodes": [[["conv2d_87", 0, 0, {}], ["dense_14", 0, 0, {}]]]}, {"name": "add_7", "class_name": "Add", "config": {"name": "add_7", "trainable": true}, "inbound_nodes": [[["add_6", 0, 0, {}], ["multiply_7", 0, 0, {}]]]}, {"name": "instance_normalization_23", "class_name": "InstanceNormalization", "config": {"name": "instance_normalization_23", "trainable": true}, "inbound_nodes": [[["add_7", 0, 0, {}]]]}, {"name": "activation_87", "class_name": "Activation", "config": {"name": "activation_87", "trainable": true, "activation": "relu"}, "inbound_nodes": [[["instance_normalization_23", 0, 0, {}]]]}, {"name": "conv2d_88", "class_name": "Conv2D", "config": {"name": "conv2d_88", "trainable": true, "filters": 64, "kernel_size": [1, 1], "strides": [1, 1], "padding": "same", "data_format": "channels_last", "dilation_rate": [1, 1], "activation": "linear", "use_bias": true, "kernel_initializer": {"class_name": "VarianceScaling", "config": {"scale": 2.0, "mode": "fan_in", "distribution": "normal", "seed": null}}, "bias_initializer": {"class_name": "Zeros", "config": {}}, "kernel_regularizer": null, "bias_regularizer": null, "activity_regularizer": null, "kernel_constraint": null, "bias_constraint": null}, "inbound_nodes": [[["activation_87", 0, 0, {}]]]}, {"name": "instance_normalization_24", "class_name": "InstanceNormalization", "config": {"name": "instance_normalization_24", "trainable": true}, "inbound_nodes": [[["conv2d_88", 0, 0, {}]]]}, {"name": "activation_88", "class_name": "Activation", "config": {"name": "activation_88", "trainable": true, "activation": "relu"}, "inbound_nodes": [[["instance_normalization_24", 0, 0, {}]]]}, {"name": "conv2d_89", "class_name": "Conv2D", "config": {"name": "conv2d_89", "trainable": true, "filters": 64, "kernel_size": [3, 3], "strides": [1, 1], "padding": "same", "data_format": "channels_last", "dilation_rate": [1, 1], "activation": "linear", "use_bias": true, "kernel_initializer": {"class_name": "VarianceScaling", "config": {"scale": 2.0, "mode": "fan_in", "distribution": "normal", "seed": null}}, "bias_initializer": {"class_name": "Zeros", "config": {}}, "kernel_regularizer": null, "bias_regularizer": null, "activity_regularizer": null, "kernel_constraint": null, "bias_constraint": null}, "inbound_nodes": [[["activation_88", 0, 0, {}]]]}, {"name": "instance_normalization_25", "class_name": "InstanceNormalization", "config": {"name": "instance_normalization_25", "trainable": true}, "inbound_nodes": [[["conv2d_89", 0, 0, {}]]]}, {"name": "activation_89", "class_name": "Activation", "config": {"name": "activation_89", "trainable": true, "activation": "relu"}, "inbound_nodes": [[["instance_normalization_25", 0, 0, {}]]]}, {"name": "conv2d_90", "class_name": "Conv2D", "config": {"name": "conv2d_90", "trainable": true, "filters": 128, "kernel_size": [1, 1], "strides": [1, 1], "padding": "same", "data_format": "channels_last", "dilation_rate": [1, 1], "activation": "linear", "use_bias": true, "kernel_initializer": {"class_name": "VarianceScaling", "config": {"scale": 2.0, "mode": "fan_in", "distribution": "normal", "seed": null}}, "bias_initializer": {"class_name": "Zeros", "config": {}}, "kernel_regularizer": null, "bias_regularizer": null, "activity_regularizer": null, "kernel_constraint": null, "bias_constraint": null}, "inbound_nodes": [[["activation_89", 0, 0, {}]]]}, {"name": "global_average_pooling2d_8", "class_name": "GlobalAveragePooling2D", "config": {"name": "global_average_pooling2d_8", "trainable": true, "data_format": "channels_last"}, "inbound_nodes": [[["conv2d_90", 0, 0, {}]]]}, {"name": "reshape_8", "class_name": "Reshape", "config": {"name": "reshape_8", "trainable": true, "target_shape": [1, 1, 128]}, "inbound_nodes": [[["global_average_pooling2d_8", 0, 0, {}]]]}, {"name": "dense_15", "class_name": "Dense", "config": {"name": "dense_15", "trainable": true, "units": 8, "activation": "relu", "use_bias": false, "kernel_initializer": {"class_name": "VarianceScaling", "config": {"scale": 2.0, "mode": "fan_in", "distribution": "normal", "seed": null}}, "bias_initializer": {"class_name": "Zeros", "config": {}}, "kernel_regularizer": null, "bias_regularizer": null, "activity_regularizer": null, "kernel_constraint": null, "bias_constraint": null}, "inbound_nodes": [[["reshape_8", 0, 0, {}]]]}, {"name": "dense_16", "class_name": "Dense", "config": {"name": "dense_16", "trainable": true, "units": 128, "activation": "sigmoid", "use_bias": false, "kernel_initializer": {"class_name": "VarianceScaling", "config": {"scale": 2.0, "mode": "fan_in", "distribution": "normal", "seed": null}}, "bias_initializer": {"class_name": "Zeros", "config": {}}, "kernel_regularizer": null, "bias_regularizer": null, "activity_regularizer": null, "kernel_constraint": null, "bias_constraint": null}, "inbound_nodes": [[["dense_15", 0, 0, {}]]]}, {"name": "multiply_8", "class_name": "Multiply", "config": {"name": "multiply_8", "trainable": true}, "inbound_nodes": [[["conv2d_90", 0, 0, {}], ["dense_16", 0, 0, {}]]]}, {"name": "add_8", "class_name": "Add", "config": {"name": "add_8", "trainable": true}, "inbound_nodes": [[["add_7", 0, 0, {}], ["multiply_8", 0, 0, {}]]]}, {"name": "instance_normalization_26", "class_name": "InstanceNormalization", "config": {"name": "instance_normalization_26", "trainable": true}, "inbound_nodes": [[["add_8", 0, 0, {}]]]}, {"name": "activation_90", "class_name": "Activation", "config": {"name": "activation_90", "trainable": true, "activation": "relu"}, "inbound_nodes": [[["instance_normalization_26", 0, 0, {}]]]}, {"name": "conv2d_91", "class_name": "Conv2D", "config": {"name": "conv2d_91", "trainable": true, "filters": 64, "kernel_size": [1, 1], "strides": [1, 1], "padding": "same", "data_format": "channels_last", "dilation_rate": [1, 1], "activation": "linear", "use_bias": true, "kernel_initializer": {"class_name": "VarianceScaling", "config": {"scale": 2.0, "mode": "fan_in", "distribution": "normal", "seed": null}}, "bias_initializer": {"class_name": "Zeros", "config": {}}, "kernel_regularizer": null, "bias_regularizer": null, "activity_regularizer": null, "kernel_constraint": null, "bias_constraint": null}, "inbound_nodes": [[["activation_90", 0, 0, {}]]]}, {"name": "instance_normalization_27", "class_name": "InstanceNormalization", "config": {"name": "instance_normalization_27", "trainable": true}, "inbound_nodes": [[["conv2d_91", 0, 0, {}]]]}, {"name": "activation_91", "class_name": "Activation", "config": {"name": "activation_91", "trainable": true, "activation": "relu"}, "inbound_nodes": [[["instance_normalization_27", 0, 0, {}]]]}, {"name": "conv2d_92", "class_name": "Conv2D", "config": {"name": "conv2d_92", "trainable": true, "filters": 64, "kernel_size": [3, 3], "strides": [1, 1], "padding": "same", "data_format": "channels_last", "dilation_rate": [1, 1], "activation": "linear", "use_bias": true, "kernel_initializer": {"class_name": "VarianceScaling", "config": {"scale": 2.0, "mode": "fan_in", "distribution": "normal", "seed": null}}, "bias_initializer": {"class_name": "Zeros", "config": {}}, "kernel_regularizer": null, "bias_regularizer": null, "activity_regularizer": null, "kernel_constraint": null, "bias_constraint": null}, "inbound_nodes": [[["activation_91", 0, 0, {}]]]}, {"name": "instance_normalization_28", "class_name": "InstanceNormalization", "config": {"name": "instance_normalization_28", "trainable": true}, "inbound_nodes": [[["conv2d_92", 0, 0, {}]]]}, {"name": "activation_92", "class_name": "Activation", "config": {"name": "activation_92", "trainable": true, "activation": "relu"}, "inbound_nodes": [[["instance_normalization_28", 0, 0, {}]]]}, {"name": "conv2d_93", "class_name": "Conv2D", "config": {"name": "conv2d_93", "trainable": true, "filters": 128, "kernel_size": [1, 1], "strides": [1, 1], "padding": "same", "data_format": "channels_last", "dilation_rate": [1, 1], "activation": "linear", "use_bias": true, "kernel_initializer": {"class_name": "VarianceScaling", "config": {"scale": 2.0, "mode": "fan_in", "distribution": "normal", "seed": null}}, "bias_initializer": {"class_name": "Zeros", "config": {}}, "kernel_regularizer": null, "bias_regularizer": null, "activity_regularizer": null, "kernel_constraint": null, "bias_constraint": null}, "inbound_nodes": [[["activation_92", 0, 0, {}]]]}, {"name": "global_average_pooling2d_9", "class_name": "GlobalAveragePooling2D", "config": {"name": "global_average_pooling2d_9", "trainable": true, "data_format": "channels_last"}, "inbound_nodes": [[["conv2d_93", 0, 0, {}]]]}, {"name": "reshape_9", "class_name": "Reshape", "config": {"name": "reshape_9", "trainable": true, "target_shape": [1, 1, 128]}, "inbound_nodes": [[["global_average_pooling2d_9", 0, 0, {}]]]}, {"name": "dense_17", "class_name": "Dense", "config": {"name": "dense_17", "trainable": true, "units": 8, "activation": "relu", "use_bias": false, "kernel_initializer": {"class_name": "VarianceScaling", "config": {"scale": 2.0, "mode": "fan_in", "distribution": "normal", "seed": null}}, "bias_initializer": {"class_name": "Zeros", "config": {}}, "kernel_regularizer": null, "bias_regularizer": null, "activity_regularizer": null, "kernel_constraint": null, "bias_constraint": null}, "inbound_nodes": [[["reshape_9", 0, 0, {}]]]}, {"name": "dense_18", "class_name": "Dense", "config": {"name": "dense_18", "trainable": true, "units": 128, "activation": "sigmoid", "use_bias": false, "kernel_initializer": {"class_name": "VarianceScaling", "config": {"scale": 2.0, "mode": "fan_in", "distribution": "normal", "seed": null}}, "bias_initializer": {"class_name": "Zeros", "config": {}}, "kernel_regularizer": null, "bias_regularizer": null, "activity_regularizer": null, "kernel_constraint": null, "bias_constraint": null}, "inbound_nodes": [[["dense_17", 0, 0, {}]]]}, {"name": "multiply_9", "class_name": "Multiply", "config": {"name": "multiply_9", "trainable": true}, "inbound_nodes": [[["conv2d_93", 0, 0, {}], ["dense_18", 0, 0, {}]]]}, {"name": "add_9", "class_name": "Add", "config": {"name": "add_9", "trainable": true}, "inbound_nodes": [[["add_8", 0, 0, {}], ["multiply_9", 0, 0, {}]]]}, {"name": "instance_normalization_29", "class_name": "InstanceNormalization", "config": {"name": "instance_normalization_29", "trainable": true}, "inbound_nodes": [[["add_9", 0, 0, {}]]]}, {"name": "activation_93", "class_name": "Activation", "config": {"name": "activation_93", "trainable": true, "activation": "relu"}, "inbound_nodes": [[["instance_normalization_29", 0, 0, {}]]]}, {"name": "conv2d_94", "class_name": "Conv2D", "config": {"name": "conv2d_94", "trainable": true, "filters": 64, "kernel_size": [1, 1], "strides": [1, 1], "padding": "same", "data_format": "channels_last", "dilation_rate": [1, 1], "activation": "linear", "use_bias": true, "kernel_initializer": {"class_name": "VarianceScaling", "config": {"scale": 2.0, "mode": "fan_in", "distribution": "normal", "seed": null}}, "bias_initializer": {"class_name": "Zeros", "config": {}}, "kernel_regularizer": null, "bias_regularizer": null, "activity_regularizer": null, "kernel_constraint": null, "bias_constraint": null}, "inbound_nodes": [[["activation_93", 0, 0, {}]]]}, {"name": "instance_normalization_30", "class_name": "InstanceNormalization", "config": {"name": "instance_normalization_30", "trainable": true}, "inbound_nodes": [[["conv2d_94", 0, 0, {}]]]}, {"name": "activation_94", "class_name": "Activation", "config": {"name": "activation_94", "trainable": true, "activation": "relu"}, "inbound_nodes": [[["instance_normalization_30", 0, 0, {}]]]}, {"name": "conv2d_95", "class_name": "Conv2D", "config": {"name": "conv2d_95", "trainable": true, "filters": 64, "kernel_size": [3, 3], "strides": [1, 1], "padding": "same", "data_format": "channels_last", "dilation_rate": [1, 1], "activation": "linear", "use_bias": true, "kernel_initializer": {"class_name": "VarianceScaling", "config": {"scale": 2.0, "mode": "fan_in", "distribution": "normal", "seed": null}}, "bias_initializer": {"class_name": "Zeros", "config": {}}, "kernel_regularizer": null, "bias_regularizer": null, "activity_regularizer": null, "kernel_constraint": null, "bias_constraint": null}, "inbound_nodes": [[["activation_94", 0, 0, {}]]]}, {"name": "instance_normalization_31", "class_name": "InstanceNormalization", "config": {"name": "instance_normalization_31", "trainable": true}, "inbound_nodes": [[["conv2d_95", 0, 0, {}]]]}, {"name": "activation_95", "class_name": "Activation", "config": {"name": "activation_95", "trainable": true, "activation": "relu"}, "inbound_nodes": [[["instance_normalization_31", 0, 0, {}]]]}, {"name": "conv2d_96", "class_name": "Conv2D", "config": {"name": "conv2d_96", "trainable": true, "filters": 128, "kernel_size": [1, 1], "strides": [1, 1], "padding": "same", "data_format": "channels_last", "dilation_rate": [1, 1], "activation": "linear", "use_bias": true, "kernel_initializer": {"class_name": "VarianceScaling", "config": {"scale": 2.0, "mode": "fan_in", "distribution": "normal", "seed": null}}, "bias_initializer": {"class_name": "Zeros", "config": {}}, "kernel_regularizer": null, "bias_regularizer": null, "activity_regularizer": null, "kernel_constra…
config": {"name": "activation_187", "trainable": true, "activation": "relu"}, "inbound_nodes": [[["instance_normalization_123", 0, 0, {}]]]}, {"name": "conv2d_188", "class_name": "Conv2D", "config": {"name": "conv2d_188", "trainable": true, "filters": 64, "kernel_size": [3, 3], "strides": [1, 1], "padding": "same", "data_format": "channels_last", "dilation_rate": [1, 1], "activation": "linear", "use_bias": true, "kernel_initializer": {"class_name": "VarianceScaling", "config": {"scale": 2.0, "mode": "fan_in", "distribution": "normal", "seed": null}}, "bias_initializer": {"class_name": "Zeros", "config": {}}, "kernel_regularizer": null, "bias_regularizer": null, "activity_regularizer": null, "kernel_constraint": null, "bias_constraint": null}, "inbound_nodes": [[["activation_187", 0, 0, {}]]]}, {"name": "instance_normalization_124", "class_name": "InstanceNormalization", "config": {"name": "instance_normalization_124", "trainable": true}, "inbound_nodes": [[["conv2d_188", 0, 0, {}]]]}, {"name": "activation_188", "class_name": "Activation", "config": {"name": "activation_188", "trainable": true, "activation": "relu"}, "inbound_nodes": [[["instance_normalization_124", 0, 0, {}]]]}, {"name": "conv2d_189", "class_name": "Conv2D", "config": {"name": "conv2d_189", "trainable": true, "filters": 128, "kernel_size": [1, 1], "strides": [1, 1], "padding": "same", "data_format": "channels_last", "dilation_rate": [1, 1], "activation": "linear", "use_bias": true, "kernel_initializer": {"class_name": "VarianceScaling", "config": {"scale": 2.0, "mode": "fan_in", "distribution": "normal", "seed": null}}, "bias_initializer": {"class_name": "Zeros", "config": {}}, "kernel_regularizer": null, "bias_regularizer": null, "activity_regularizer": null, "kernel_constraint": null, "bias_constraint": null}, "inbound_nodes": [[["activation_188", 0, 0, {}]]]}, {"name": "global_average_pooling2d_41", "class_name": "GlobalAveragePooling2D", "config": {"name": "global_average_pooling2d_41", "trainable": true, "data_format": "channels_last"}, "inbound_nodes": [[["conv2d_189", 0, 0, {}]]]}, {"name": "reshape_41", "class_name": "Reshape", "config": {"name": "reshape_41", "trainable": true, "target_shape": [1, 1, 128]}, "inbound_nodes": [[["global_average_pooling2d_41", 0, 0, {}]]]}, {"name": "dense_81", "class_name": "Dense", "config": {"name": "dense_81", "trainable": true, "units": 8, "activation": "relu", "use_bias": false, "kernel_initializer": {"class_name": "VarianceScaling", "config": {"scale": 2.0, "mode": "fan_in", "distribution": "normal", "seed": null}}, "bias_initializer": {"class_name": "Zeros", "config": {}}, "kernel_regularizer": null, "bias_regularizer": null, "activity_regularizer": null, "kernel_constraint": null, "bias_constraint": null}, "inbound_nodes": [[["reshape_41", 0, 0, {}]]]}, {"name": "dense_82", "class_name": "Dense", "config": {"name": "dense_82", "trainable": true, "units": 128, "activation": "sigmoid", "use_bias": false, "kernel_initializer": {"class_name": "VarianceScaling", "config": {"scale": 2.0, "mode": "fan_in", "distribution": "normal", "seed": null}}, "bias_initializer": {"class_name": "Zeros", "config": {}}, "kernel_regularizer": null, "bias_regularizer": null, "activity_regularizer": null, "kernel_constraint": null, "bias_constraint": null}, "inbound_nodes": [[["dense_81", 0, 0, {}]]]}, {"name": "multiply_41", "class_name": "Multiply", "config": {"name": "multiply_41", "trainable": true}, "inbound_nodes": [[["conv2d_189", 0, 0, {}], ["dense_82", 0, 0, {}]]]}, {"name": "add_41", "class_name": "Add", "config": {"name": "add_41", "trainable": true}, "inbound_nodes": [[["add_40", 0, 0, {}], ["multiply_41", 0, 0, {}]]]}, {"name": "instance_normalization_125", "class_name": "InstanceNormalization", "config": {"name": "instance_normalization_125", "trainable": true}, "inbound_nodes": [[["add_41", 0, 0, {}]]]}, {"name": "activation_189", "class_name": "Activation", "config": {"name": "activation_189", "trainable": true, "activation": "relu"}, "inbound_nodes": [[["instance_normalization_125", 0, 0, {}]]]}, {"name": "conv2d_190", "class_name": "Conv2D", "config": {"name": "conv2d_190", "trainable": true, "filters": 64, "kernel_size": [1, 1], "strides": [1, 1], "padding": "same", "data_format": "channels_last", "dilation_rate": [1, 1], "activation": "linear", "use_bias": true, "kernel_initializer": {"class_name": "VarianceScaling", "config": {"scale": 2.0, "mode": "fan_in", "distribution": "normal", "seed": null}}, "bias_initializer": {"class_name": "Zeros", "config": {}}, "kernel_regularizer": null, "bias_regularizer": null, "activity_regularizer": null, "kernel_constraint": null, "bias_constraint": null}, "inbound_nodes": [[["activation_189", 0, 0, {}]]]}, {"name": "instance_normalization_126", "class_name": "InstanceNormalization", "config": {"name": "instance_normalization_126", "trainable": true}, "inbound_nodes": [[["conv2d_190", 0, 0, {}]]]}, {"name": "activation_190", "class_name": "Activation", "config": {"name": "activation_190", "trainable": true, "activation": "relu"}, "inbound_nodes": [[["instance_normalization_126", 0, 0, {}]]]}, {"name": "conv2d_191", "class_name": "Conv2D", "config": {"name": "conv2d_191", "trainable": true, "filters": 64, "kernel_size": [3, 3], "strides": [1, 1], "padding": "same", "data_format": "channels_last", "dilation_rate": [1, 1], "activation": "linear", "use_bias": true, "kernel_initializer": {"class_name": "VarianceScaling", "config": {"scale": 2.0, "mode": "fan_in", "distribution": "normal", "seed": null}}, "bias_initializer": {"class_name": "Zeros", "config": {}}, "kernel_regularizer": null, "bias_regularizer": null, "activity_regularizer": null, "kernel_constraint": null, "bias_constraint": null}, "inbound_nodes": [[["activation_190", 0, 0, {}]]]}, {"name": "instance_normalization_127", "class_name": "InstanceNormalization", "config": {"name": "instance_normalization_127", "trainable": true}, "inbound_nodes": [[["conv2d_191", 0, 0, {}]]]}, {"name": "activation_191", "class_name": "Activation", "config": {"name": "activation_191", "trainable": true, "activation": "relu"}, "inbound_nodes": [[["instance_normalization_127", 0, 0, {}]]]}, {"name": "conv2d_192", "class_name": "Conv2D", "config": {"name": "conv2d_192", "trainable": true, "filters": 128, "kernel_size": [1, 1], "strides": [1, 1], "padding": "same", "data_format": "channels_last", "dilation_rate": [1, 1], "activation": "linear", "use_bias": true, "kernel_initializer": {"class_name": "VarianceScaling", "config": {"scale": 2.0, "mode": "fan_in", "distribution": "normal", "seed": null}}, "bias_initializer": {"class_name": "Zeros", "config": {}}, "kernel_regularizer": null, "bias_regularizer": null, "activity_regularizer": null, "kernel_constraint": null, "bias_constraint": null}, "inbound_nodes": [[["activation_191", 0, 0, {}]]]}, {"name": "global_average_pooling2d_42", "class_name": "GlobalAveragePooling2D", "config": {"name": "global_average_pooling2d_42", "trainable": true, "data_format": "channels_last"}, "inbound_nodes": [[["conv2d_192", 0, 0, {}]]]}, {"name": "reshape_42", "class_name": "Reshape", "config": {"name": "reshape_42", "trainable": true, "target_shape": [1, 1, 128]}, "inbound_nodes": [[["global_average_pooling2d_42", 0, 0, {}]]]}, {"name": "dense_83", "class_name": "Dense", "config": {"name": "dense_83", "trainable": true, "units": 8, "activation": "relu", "use_bias": false, "kernel_initializer": {"class_name": "VarianceScaling", "config": {"scale": 2.0, "mode": "fan_in", "distribution": "normal", "seed": null}}, "bias_initializer": {"class_name": "Zeros", "config": {}}, "kernel_regularizer": null, "bias_regularizer": null, "activity_regularizer": null, "kernel_constraint": null, "bias_constraint": null}, "inbound_nodes": [[["reshape_42", 0, 0, {}]]]}, {"name": "dense_84", "class_name": "Dense", "config": {"name": "dense_84", "trainable": true, "units": 128, "activation": "sigmoid", "use_bias": false, "kernel_initializer": {"class_name": "VarianceScaling", "config": {"scale": 2.0, "mode": "fan_in", "distribution": "normal", "seed": null}}, "bias_initializer": {"class_name": "Zeros", "config": {}}, "kernel_regularizer": null, "bias_regularizer": null, "activity_regularizer": null, "kernel_constraint": null, "bias_constraint": null}, "inbound_nodes": [[["dense_83", 0, 0, {}]]]}, {"name": "multiply_42", "class_name": "Multiply", "config": {"name": "multiply_42", "trainable": true}, "inbound_nodes": [[["conv2d_192", 0, 0, {}], ["dense_84", 0, 0, {}]]]}, {"name": "add_42", "class_name": "Add", "config": {"name": "add_42", "trainable": true}, "inbound_nodes": [[["add_41", 0, 0, {}], ["multiply_42", 0, 0, {}]]]}, {"name": "instance_normalization_128", "class_name": "InstanceNormalization", "config": {"name": "instance_normalization_128", "trainable": true}, "inbound_nodes": [[["add_42", 0, 0, {}]]]}, {"name": "activation_192", "class_name": "Activation", "config": {"name": "activation_192", "trainable": true, "activation": "relu"}, "inbound_nodes": [[["instance_normalization_128", 0, 0, {}]]]}, {"name": "conv2d_193", "class_name": "Conv2D", "config": {"name": "conv2d_193", "trainable": true, "filters": 64, "kernel_size": [1, 1], "strides": [1, 1], "padding": "same", "data_format": "channels_last", "dilation_rate": [1, 1], "activation": "linear", "use_bias": true, "kernel_initializer": {"class_name": "VarianceScaling", "config": {"scale": 2.0, "mode": "fan_in", "distribution": "normal", "seed": null}}, "bias_initializer": {"class_name": "Zeros", "config": {}}, "kernel_regularizer": null, "bias_regularizer": null, "activity_regularizer": null, "kernel_constraint": null, "bias_constraint": null}, "inbound_nodes": [[["activation_192", 0, 0, {}]]]}, {"name": "instance_normalization_129", "class_name": "InstanceNormalization", "config": {"name": "instance_normalization_129", "trainable": true}, "inbound_nodes": [[["conv2d_193", 0, 0, {}]]]}, {"name": "activation_193", "class_name": "Activation", "config": {"name": "activation_193", "trainable": true, "activation": "relu"}, "inbound_nodes": [[["instance_normalization_129", 0, 0, {}]]]}, {"name": "conv2d_194", "class_name": "Conv2D", "config": {"name": "conv2d_194", "trainable": true, "filters": 64, "kernel_size": [3, 3], "strides": [1, 1], "padding": "same", "data_format": "channels_last", "dilation_rate": [1, 1], "activation": "linear", "use_bias": true, "kernel_initializer": {"class_name": "VarianceScaling", "config": {"scale": 2.0, "mode": "fan_in", "distribution": "normal", "seed": null}}, "bias_initializer": {"class_name": "Zeros", "config": {}}, "kernel_regularizer": null, "bias_regularizer": null, "activity_regularizer": null, "kernel_constraint": null, "bias_constraint": null}, "inbound_nodes": [[["activation_193", 0, 0, {}]]]}, {"name": "instance_normalization_130", "class_name": "InstanceNormalization", "config": {"name": "instance_normalization_130", "trainable": true}, "inbound_nodes": [[["conv2d_194", 0, 0, {}]]]}, {"name": "activation_194", "class_name": "Activation", "config": {"name": "activation_194", "trainable": true, "activation": "relu"}, "inbound_nodes": [[["instance_normalization_130", 0, 0, {}]]]}, {"name": "conv2d_195", "class_name": "Conv2D", "config": {"name": "conv2d_195", "trainable": true, "filters": 128, "kernel_size": [1, 1], "strides": [1, 1], "padding": "same", "data_format": "channels_last", "dilation_rate": [1, 1], "activation": "linear", "use_bias": true, "kernel_initializer": {"class_name": "VarianceScaling", "config": {"scale": 2.0, "mode": "fan_in", "distribution": "normal", "seed": null}}, "bias_initializer": {"class_name": "Zeros", "config": {}}, "kernel_regularizer": null, "bias_regularizer": null, "activity_regularizer": null, "kernel_constraint": null, "bias_constraint": null}, "inbound_nodes": [[["activation_194", 0, 0, {}]]]}, {"name": "global_average_pooling2d_43", "class_name": "GlobalAveragePooling2D", "config": {"name": "global_average_pooling2d_43", "trainable": true, "data_format": "channels_last"}, "inbound_nodes": [[["conv2d_195", 0, 0, {}]]]}, {"name": "reshape_43", "class_name": "Reshape", "config": {"name": "reshape_43", "trainable": true, "target_shape": [1, 1, 128]}, "inbound_nodes": [[["global_average_pooling2d_43", 0, 0, {}]]]}, {"name": "dense_85", "class_name": "Dense", "config": {"name": "dense_85", "trainable": true, "units": 8, "activation": "relu", "use_bias": false, "kernel_initializer": {"class_name": "VarianceScaling", "config": {"scale": 2.0, "mode": "fan_in", "distribution": "normal", "seed": null}}, "bias_initializer": {"class_name": "Zeros", "config": {}}, "kernel_regularizer": null, "bias_regularizer": null, "activity_regularizer": null, "kernel_constraint": null, "bias_constraint": null}, "inbound_nodes": [[["reshape_43", 0, 0, {}]]]}, {"name": "dense_86", "class_name": "Dense", "config": {"name": "dense_86", "trainable": true, "units": 128, "activation": "sigmoid", "use_bias": false, "kernel_initializer": {"class_name": "VarianceScaling", "config": {"scale": 2.0, "mode": "fan_in", "distribution": "normal", "seed": null}}, "bias_initializer": {"class_name": "Zeros", "config": {}}, "kernel_regularizer": null, "bias_regularizer": null, "activity_regularizer": null, "kernel_constraint": null, "bias_constraint": null}, "inbound_nodes": [[["dense_85", 0, 0, {}]]]}, {"name": "multiply_43", "class_name": "Multiply", "config": {"name": "multiply_43", "trainable": true}, "inbound_nodes": [[["conv2d_195", 0, 0, {}], ["dense_86", 0, 0, {}]]]}, {"name": "add_43", "class_name": "Add", "config": {"name": "add_43", "trainable": true}, "inbound_nodes": [[["add_42", 0, 0, {}], ["multiply_43", 0, 0, {}]]]}, {"name": "instance_normalization_131", "class_name": "InstanceNormalization", "config": {"name": "instance_normalization_131", "trainable": true}, "inbound_nodes": [[["add_43", 0, 0, {}]]]}, {"name": "activation_195", "class_name": "Activation", "config": {"name": "activation_195", "trainable": true, "activation": "relu"}, "inbound_nodes": [[["instance_normalization_131", 0, 0, {}]]]}, {"name": "conv2d_196", "class_name": "Conv2D", "config": {"name": "conv2d_196", "trainable": true, "filters": 64, "kernel_size": [1, 1], "strides": [1, 1], "padding": "same", "data_format": "channels_last", "dilation_rate": [1, 1], "activation": "linear", "use_bias": true, "kernel_initializer": {"class_name": "VarianceScaling", "config": {"scale": 2.0, "mode": "fan_in", "distribution": "normal", "seed": null}}, "bias_initializer": {"class_name": "Zeros", "config": {}}, "kernel_regularizer": null, "bias_regularizer": null, "activity_regularizer": null, "kernel_constraint": null, "bias_constraint": null}, "inbound_nodes": [[["activation_195", 0, 0, {}]]]}, {"name": "instance_normalization_132", "class_name": "InstanceNormalization", "config": {"name": "instance_normalization_132", "trainable": true}, "inbound_nodes": [[["conv2d_196", 0, 0, {}]]]}, {"name": "activation_196", "class_name": "Activation", "config": {"name": "activation_196", "trainable": true, "activation": "relu"}, "inbound_nodes": [[["instance_normalization_132", 0, 0, {}]]]}, {"name": "conv2d_197", "class_name": "Conv2D", "config": {"name": "conv2d_197", "trainable": true, "filters": 64, "kernel_size": [3, 3], "strides": [1, 1], "padding": "same", "data_format": "channels_last", "dilation_rate": [1, 1], "activation": "linear", "use_bias": true, "kernel_initializer": {"class_name": "VarianceScaling", "config": {"scale": 2.0, "mode": "fan_in", "distribution": "normal", "seed": null}}, "bias_initializer": {"class_name": "Zeros", "config": {}}, "kernel_regularizer": null, "bias_regularizer": null, "activity_regularizer": null, "kernel_constraint": null, "bias_constraint": null}, "inbound_nodes": [[["activation_196", 0, 0, {}]]]}, {"name": "instance_normalization_133", "class_name": "InstanceNormalization", "config": {"name": "instance_normalization_133", "trainable": true}, "inbound_nodes": [[["conv2d_197", 0, 0, {}]]]}, {"name": "activation_197", "class_name": "Activation", "config": {"name": "activation_197", "trainable": true, "activation": "relu"}, "inbound_nodes": [[["instance_normalization_133", 0, 0, {}]]]}, {"name": "conv2d_198", "class_name": "Conv2D", "config": {"name": "conv2d_198", "trainable": true, "filters": 128, "kernel_size": [1, 1], "strides": [1, 1], "padding": "same", "data_format": "channels_last", "dilation_rate": [1, 1], "activation": "linear", "use_bias": true, "kernel_initializer": {"class_name": "VarianceScaling", "config": {"scale": 2.0, "mode": "fan_in", "distribution": "normal", "seed": null}}, "bias_initializer": {"class_name": "Zeros", "config": {}}, "kernel_regularizer": null, "bias_regularizer": null, "activity_regularizer": null, "kernel_constraint": null, "bias_constraint": null}, "inbound_nodes": [[["activation_197", 0, 0, {}]]]}, {"name": "global_average_pooling2d_44", "class_name": "GlobalAveragePooling2D", "config": {"name": "global_average_pooling2d_44", "trainable": true, "data_format": "channels_last"}, "inbound_nodes": [[["conv2d_198", 0, 0, {}]]]}, {"name": "reshape_44", "class_name": "Reshape", "config": {"name": "reshape_44", "trainable": true, "target_shape": [1, 1, 128]}, "inbound_nodes": [[["global_average_pooling2d_44", 0, 0, {}]]]}, {"name": "dense_87", "class_name": "Dense", "config": {"name": "dense_87", "trainable": true, "units": 8, "activation": "relu", "use_bias": false, "kernel_initializer": {"class_name": "VarianceScaling", "config": {"scale": 2.0, "mode": "fan_in", "distribution": "normal", "seed": null}}, "bias_initializer": {"class_name": "Zeros", "config": {}}, "kernel_regularizer": null, "bias_regularizer": null, "activity_regularizer": null, "kernel_constraint": null, "bias_constraint": null}, "inbound_nodes": [[["reshape_44", 0, 0, {}]]]}, {"name": "dense_88", "class_name": "Dense", "config": {"name": "dense_88", "trainable": true, "units": 128, "activation": "sigmoid", "use_bias": false, "kernel_initializer": {"class_name": "VarianceScaling", "config": {"scale": 2.0, "mode": "fan_in", "distribution": "normal", "seed": null}}, "bias_initializer": {"class_name": "Zeros", "config": {}}, "kernel_regularizer": null, "bias_regularizer": null, "activity_regularizer": null, "kernel_constraint": null, "bias_constraint": null}, "inbound_nodes": [[["dense_87", 0, 0, {}]]]}, {"name": "multiply_44", "class_name": "Multiply", "config": {"name": "multiply_44", "trainable": true}, "inbound_nodes": [[["conv2d_198", 0, 0, {}], ["dense_88", 0, 0, {}]]]}, {"name": "add_44", "class_name": "Add", "config": {"name": "add_44", "trainable": true}, "inbound_nodes": [[["add_43", 0, 0, {}], ["multiply_44", 0, 0, {}]]]}, {"name": "instance_normalization_134", "class_name": "InstanceNormalization", "config": {"name": "instance_normalization_134", "trainable": true}, "inbound_nodes": [[["add_44", 0, 0, {}]]]}, {"name": "activation_198", "class_name": "Activation", "config": {"name": "activation_198", "trainable": true, "activation": "relu"}, "inbound_nodes": [[["instance_normalization_134", 0, 0, {}]]]}, {"name": "conv2d_199", "class_name": "Conv2D", "config": {"name": "conv2d_199", "trainable": true, "filters": 64, "kernel_size": [1, 1], "strides": [1, 1], "padding": "same", "data_format": "channels_last", "dilation_rate": [1, 1], "activation": "linear", "use_bias": true, "kernel_initializer": {"class_name": "VarianceScaling", "config": {"scale": 2.0, "mode": "fan_in", "distribution": "normal", "seed": null}}, "bias_initializer": {"class_name": "Zeros", "config": {}}, "kernel_regularizer": null, "bias_regularizer": null, "activity_regularizer": null, "kernel_constraint": null, "bias_constraint": null}, "inbound_nodes": [[["activation_198", 0, 0, {}]]]}, {"name": "instance_normalization_135", "class_name": "InstanceNormalization", "config": {"name": "instance_normalization_135", "trainable": true}, "inbound_nodes": [[["conv2d_199", 0, 0, {}]]]}, {"name": "activation_199", "class_name": "Activation", "config": {"name": "activation_199", "trainable": true, "activation": "relu"}, "inbound_nodes": [[["instance_normalization_135", 0, 0, {}]]]}, {"name": "conv2d_200", "class_name": "Conv2D", "config": {"name": "conv2d_200", "trainable": true, "filters": 64, "kernel_size": [3, 3], "strides": [1, 1], "padding": "same", "data_format": "channels_last", "dilation_rate": [1, 1], "activation": "linear", "use_bias": true, "kernel_initializer": {"class_name": "VarianceScaling", "config": {"scale": 2.0, "mode": "fan_in", "distribution": "normal", "seed": null}}, "bias_initializer": {"class_name": "Zeros", "config": {}}, "kernel_regularizer": null, "bias_regularizer": null, "activity_regularizer": null, "kernel_constraint": null, "bias_constraint": null}, "inbound_nodes": [[["activation_199", 0, 0, {}]]]}, {"name": "instance_normalization_136", "class_name": "InstanceNormalization", "config": {"name": "instance_normalization_136", "trainable": true}, "inbound_nodes": [[["conv2d_200", 0, 0, {}]]]}, {"name": "activation_200", "class_name": "Activation", "config": {"name": "activation_200", "trainable": true, "activation": "relu"}, "inbound_nodes": [[["instance_normalization_136", 0, 0, {}]]]}, {"name": "conv2d_201", "class_name": "Conv2D", "config": {"name": "conv2d_201", "trainable": true, "filters": 128, "kernel_size": [1, 1], "strides": [1, 1], "padding": "same", "data_format": "channels_last", "dilation_rate": [1, 1], "activation": "linear", "use_bias": true, "kernel_initializer": {"class_name": "VarianceScaling", "config": {"scale": 2.0, "mode": "fan_in", "distribution": "normal", "seed": null}}, "bias_initializer": {"class_name": "Zeros", "config": {}}, "kernel_regularizer": null, "bias_regularizer": null, "activity_regularizer": null, "kernel_constraint": null, "bias_constraint": null}, "inbound_nodes": [[["activation_200", 0, 0, {}]]]}, {"name": "global_average_pooling2d_45", "class_name": "GlobalAveragePooling2D", "config": {"name": "global_average_pooling2d_45", "trainable": true, "data_format": "channels_last"}, "inbound_nodes": [[["conv2d_201", 0, 0, {}]]]}, {"name": "reshape_45", "class_name": "Reshape", "config": {"name": "reshape_45", "trainable": true, "target_shape": [1, 1, 128]}, "inbound_nodes": [[["global_average_pooling2d_45", 0, 0, {}]]]}, {"name": "dense_89", "class_name": "Dense", "config": {"name": "dense_89", "trainable": true, "units": 8, "activation": "relu", "use_bias": false, "kernel_initializer": {"class_name": "VarianceScaling", "config": {"scale": 2.0, "mode": "fan_in", "distribution": "normal", "seed": null}}, "bias_initializer": {"class_name": "Zeros", "config": {}}, "kernel_regularizer": null, "bias_regularizer": null, "activity_regularizer": null, "kernel_constraint": null, "bias_constraint": null}, "inbound_nodes": [[["reshape_45", 0, 0, {}]]]}, {"name": "dense_90", "class_name": "Dense", "config": {"name": "dense_90", "trainable": true, "units": 128, "activation": "sigmoid", "use_bias": false, "kernel_initializer": {"class_name": "VarianceScaling", "config": {"scale": 2.0, "mode": "fan_in", "distribution": "normal", "seed": null}}, "bias_initializer": {"class_name": "Zeros", "config": {}}, "kernel_regularizer": null, "bias_regularizer": null, "activity_regularizer": null, "kernel_constraint": null, "bias_constraint": null}, "inbound_nodes": [[["dense_89", 0, 0, {}]]]}, {"name": "multiply_45", "class_name": "Multiply", "config": {"name": "multiply_45", "trainable": true}, "inbound_nodes": [[["conv2d_201", 0, 0, {}], ["dense_90", 0, 0, {}]]]}, {"name": "add_45", "class_name": "Add", "config": {"name": "add_45", "trainable": true}, "inbound_nodes": [[["add_44", 0, 0, {}], ["multiply_45", 0, 0, {}]]]}, {"name": "instance_normalization_137", "class_name": "InstanceNormalization", "config": {"name": "instance_normalization_137", "trainable": true}, "inbound_nodes": [[["add_45", 0, 0, {}]]]}, {"name": "activation_201", "class_name": "Activation", "config": {"name": "activation_201", "trainable": true, "activation": "relu"}, "inbound_nodes": [[["instance_normalization_137", 0, 0, {}]]]}, {"name": "conv2d_202", "class_name": "Conv2D", "config": {"name": "conv2d_202", "trainable": true, "filters": 64, "kernel_size": [1, 1], "strides": [1, 1], "padding": "same", "data_format": "channels_last", "dilation_rate": [1, 1], "activation": "linear", "use_bias": true, "kernel_initializer": {"class_name": "VarianceScaling", "config": {"scale": 2.0, "mode": "fan_in", "distribution": "normal", "seed": null}}, "bias_initializer": {"class_name": "Zeros", "config": {}}, "kernel_regularizer": null, "bias_regularizer": null, "activity_regularizer": null, "kernel_constraint": null, "bias_constraint": null}, "inbound_nodes": [[["activation_201", 0, 0, {}]]]}, {"name": "instance_normalization_138", "class_name": "InstanceNormalization", "config": {"name": "instance_normalization_138", "trainable": true}, "inbound_nodes": [[["conv2d_202", 0, 0, {}]]]}, {"name": "activation_202", "class_name": "Activation", "config": {"name": "activation_202", "trainable": true, "activation": "relu"}, "inbound_nodes": [[["instance_normalization_138", 0, 0, {}]]]}, {"name": "conv2d_203", "class_name": "Conv2D", "config": {"name": "conv2d_203", "trainable": true, "filters": 64, "kernel_size": [3, 3], "strides": [1, 1], "padding": "same", "data_format": "channels_last", "dilation_rate": [1, 1], "activation": "linear", "use_bias": true, "kernel_initializer": {"class_name": "VarianceScaling", "config": {"scale": 2.0, "mode": "fan_in", "distribution": "normal", "seed": null}}, "bias_initializer": {"class_name": "Zeros", "config": {}}, "kernel_regularizer": null, "bias_regularizer": null, "activity_regularizer": null, "kernel_constraint": null, "bias_constraint": null}, "inbound_nodes": [[["activation_202", 0, 0, {}]]]}, {"name": "instance_normalization_139", "class_name": "InstanceNormalization", "config": {"name": "instance_normalization_139", "trainable": true}, "inbound_nodes": [[["conv2d_203", 0, 0, {}]]]}, {"name": "activation_203", "class_name": "Activation", "config": {"name": "activation_203", "trainable": true, "activation": "relu"}, "inbound_nodes": [[["instance_normalization_139", 0, 0, {}]]]}, {"name": "conv2d_204", "class_name": "Conv2D", "config": {"name": "conv2d_204", "trainable": true, "filters": 128, "kernel_size": [1, 1], "strides": [1, 1], "padding": "same", "data_format": "channels_last", "dilation_rate": [1, 1], "activation": "linear", "use_bias": true, "kernel_initializer": {"class_name": "VarianceScaling", "config": {"scale": 2.0, "mode": "fan_in", "distribution": "normal", "seed": null}}, "bias_initializer": {"class_name": "Zeros", "config": {}}, "kernel_regularizer": null, "bias_regularizer": null, "activity_regularizer": null, "kernel_constraint": null, "bias_constraint": null}, "inbound_nodes": [[["activation_203", 0, 0, {}]]]}, {"name": "global_average_pooling2d_46", "class_name": "GlobalAveragePooling2D", "config": {"name": "global_average_pooling2d_46", "trainable": true, "data_format": "channels_last"}, "inbound_nodes": [[["conv2d_204", 0, 0, {}]]]}, {"name": "reshape_46", "class_name": "Reshape", "config": {"name": "reshape_46", "trainable": true, "target_shape": [1, 1, 128]}, "inbound_nodes": [[["global_average_pooling2d_46", 0, 0, {}]]]}, {"name": "dense_91", "class_name": "Dense", "config": {"name": "dense_91", "trainable": true, "units": 8, "activation": "relu", "use_bias": false, "kernel_initializer": {"class_name": "VarianceScaling", "config": {"scale": 2.0, "mode": "fan_in", "distribution": "normal", "seed": null}}, "bias_initializer": {"class_name": "Zeros", "config": {}}, "kernel_regularizer": null, "bias_regularizer": null, "activity_regularizer": null, "kernel_constraint": null, "bias_constraint": null}, "inbound_nodes": [[["reshape_46", 0, 0, {}]]]}, {"name": "dense_92", "class_name": "Dense", "config": {"name": "dense_92", "trainable": true, "units": 128, "activation": "sigmoid", "use_bias": false, "kernel_initializer": {"class_name": "VarianceScaling", "config": {"scale": 2.0, "mode": "fan_in", "distribution": "normal", "seed": null}}, "bias_initializer": {"class_name": "Zeros", "config": {}}, "kernel_regularizer": null, "bias_regularizer": null, "activity_regularizer": null, "kernel_constraint": null, "bias_constraint": null}, "inbound_nodes": [[["dense_91", 0, 0, {}]]]}, {"name": "multiply_46", "class_name": "Multiply", "config": {"name": "multiply_46", "trainable": true}, "inbound_nodes": [[["conv2d_204", 0, 0, {}], ["dense_92", 0, 0, {}]]]}, {"name": "add_46", "class_name": "Add", "config": {"name": "add_46", "trainable": true}, "inbound_nodes": [[["add_45", 0, 0, {}], ["multiply_46", 0, 0, {}]]]}, {"name": "instance_normalization_140", "class_name": "InstanceNormalization", "config": {"name": "instance_normalization_140", "trainable": true}, "inbound_nodes": [[["add_46", 0, 0, {}]]]}, {"name": "activation_204", "class_name": "Activation", "config": {"name": "activation_204", "trainable": true, "activation": "relu"}, "inbound_nodes": [[["instance_normalization_140", 0, 0, {}]]]}, {"name": "conv2d_205", "class_name": "Conv2D", "config": {"name": "conv2d_205", "trainable": true, "filters": 64, "kernel_size": [1, 1], "strides": [1, 1], "padding": "same", "data_format": "channels_last", "dilation_rate": [1, 1], "activation": "linear", "use_bias": true, "kernel_initializer": {"class_name": "VarianceScaling", "config": {"scale": 2.0, "mode": "fan_in", "distribution": "normal", "seed": null}}, "bias_initializer": {"class_name": "Zeros", "config": {}}, "kernel_regularizer": null, "bias_regularizer": null, "activity_regularizer": null, "kernel_constraint": null, "bias_constraint": null}, "inbound_nodes": [[["activation_204", 0, 0, {}]]]}, {"name": "instance_normalization_141", "class_name": "InstanceNormalization", "config": {"name": "instance_normalization_141", "trainable": true}, "inbound_nodes": [[["conv2d_205", 0, 0, {}]]]}, {"name": "activation_205", "class_name": "Activation", "config": {"name": "activation_205", "trainable": true, "activation": "relu"}, "inbound_nodes": [[["instance_normalization_141", 0, 0, {}]]]}, {"name": "conv2d_206", "class_name": "Conv2D", "config": {"name": "conv2d_206", "trainable": true, "filters": 64, "kernel_size": [3, 3], "strides": [1, 1], "padding": "same", "data_format": "channels_last", "dilation_rate": [1, 1], "activation": "linear", "use_bias": true, "kernel_initializer": {"class_name": "VarianceScaling", "config": {"scale": 2.0, "mode": "fan_in", "distribution": "normal", "seed": null}}, "bias_initializer": {"class_name": "Zeros", "config": {}}, "kernel_regularizer": null, "bias_regularizer": null, "activity_regularizer": null, "kernel_constraint": null, "bias_constraint": null}, "inbound_nodes": [[["activation_205", 0, 0, {}]]]}, {"name": "instance_normalization_142", "class_name": "InstanceNormalization", "config": {"name": "instance_normalization_142", "trainable": true}, "inbound_nodes": [[["conv2d_206", 0, 0, {}]]]}, {"name": "activation_206", "class_name": "Activation", "config": {"name": "activation_206", "trainable": true, "activation": "relu"}, "inbound_nodes": [[["instance_normalization_142", 0, 0, {}]]]}, {"name": "conv2d_207", "class_name": "Conv2D", "config": {"name": "conv2d_207", "trainable": true, "filters": 128, "kernel_size": [1, 1], "strides": [1, 1], "padding": "same", "data_format": "channels_last", "dilation_rate": [1, 1], "activation": "linear", "use_bias": true, "kernel_initializer": {"class_name": "VarianceScaling", "config": {"scale": 2.0, "mode": "fan_in", "distribution": "normal", "seed": null}}, "bias_initializer": {"class_name": "Zeros", "config": {}}, "kernel_regularizer": null, "bias_regularizer": null, "activity_regularizer": null, "kernel_constraint": null, "bias_constraint": null}, "inbound_nodes": [[["activation_206", 0, 0, {}]]]}, {"name": "global_average_pooling2d_47", "class_name": "GlobalAveragePooling2D", "config": {"name": "global_average_pooling2d_47", "trainable": true, "data_format": "channels_last"}, "inbound_nodes": [[["conv2d_207", 0, 0, {}]]]}, {"name": "reshape_47", "class_name": "Reshape", "config": {"name": "reshape_47", "trainable": true, "target_shape": [1, 1, 128]}, "inbound_nodes": [[["global_average_pooling2d_47", 0, 0, {}]]]}, {"name": "dense_93", "class_name": "Dense", "config": {"name": "dense_93", "trainable": true, "units": 8, "activation": "relu", "use_bias": false, "kernel_initializer": {"class_name": "VarianceScaling", "config": {"scale": 2.0, "mode": "fan_in", "distribution": "normal", "seed": null}}, "bias_initializer": {"class_name": "Zeros", "config": {}}, "kernel_regularizer": null, "bias_regularizer": null, "activity_regularizer": null, "kernel_constraint": null, "bias_constraint": null}, "inbound_nodes": [[["reshape_47", 0, 0, {}]]]}, {"name": "dense_94", "class_name": "Dense", "config": {"name": "dense_94", "trainable": true, "units": 128, "activation": "sigmoid", "use_bias": false, "kernel_initializer": {"class_name": "VarianceScaling", "config": {"scale": 2.0, "mode": "fan_in", "distribution": "normal", "seed": null}}, "bias_initializer": {"class_name": "Zeros", "config": {}}, "kernel_regularizer": null, "bias_regularizer": null, "activity_regularizer": null, "kernel_constraint": null, "bias_constraint": null}, "inbound_nodes": [[["dense_93", 0, 0, {}]]]}, {"name": "multiply_47", "class_name": "Multiply", "config": {"name": "multiply_47", "trainable": true}, "inbound_nodes": [[["conv2d_207", 0, 0, {}], ["dense_94", 0, 0, {}]]]}, {"name": "add_47", "class_name": "Add", "config": {"name": "add_47", "trainable": true}, "inbound_nodes": [[["add_46", 0, 0, {}], ["multiply_47", 0, 0, {}]]]}, {"name": "instance_normalization_143", "class_name": "InstanceNormalization", "config": {"name": "instance_normalization_143", "trainable": true}, "inbound_nodes": [[["add_47", 0, 0, {}]]]}, {"name": "activation_207", "class_name": "Activation", "config": {"name": "activation_207", "trainable": true, "activation": "relu"}, "inbound_nodes": [[["instance_normalization_143", 0, 0, {}]]]}, {"name": "conv2d_208", "class_name": "Conv2D", "config": {"name": "conv2d_208", "trainable": true, "filters": 64, "kernel_size": [1, 1], "strides": [1, 1], "padding": "same", "data_format": "channels_last", "dilation_rate": [1, 1], "activation": "linear", "use_bias": true, "kernel_initializer": {"class_name": "VarianceScaling", "config": {"scale": 2.0, "mode": "fan_in", "distribution": "normal", "seed": null}}, "bias_initializer": {"class_name": "Zeros", "config": {}}, "kernel_regularizer": null, "bias_regularizer": null, "activity_regularizer": null, "kernel_constraint": null, "bias_constraint": null}, "inbound_nodes": [[["activation_207", 0, 0, {}]]]}, {"name": "instance_normalization_144", "class_name": "InstanceNormalization", "config": {"name": "instance_normalization_144", "trainable": true}, "inbound_nodes": [[["conv2d_208", 0, 0, {}]]]}, {"name": "activation_208", "class_name": "Activation", "config": {"name": "activation_208", "trainable": true, "activation": "relu"}, "inbound_nodes": [[["instance_normalization_144", 0, 0, {}]]]}, {"name": "conv2d_209", "class_name": "Conv2D", "config": {"name": "conv2d_209", "trainable": true, "filters": 64, "kernel_size": [3, 3], "strides": [1, 1], "padding": "same", "data_format": "channels_last", "dilation_rate": [1, 1], "activation": "linear", "use_bias": true, "kernel_initializer": {"class_name": "VarianceScaling", "config": {"scale": 2.0, "mode": "fan_in", "distribution": "normal", "seed": null}}, "bias_initializer": {"class_name": "Zeros", "config": {}}, "kernel_regularizer": null, "bias_regularizer": null, "activity_regularizer": null, "kernel_constraint": null, "bias_constraint": null}, "inbound_nodes": [[["activation_208", 0, 0, {}]]]}, {"name": "instance_normalization_145", "class_name": "InstanceNormalization", "config": {"name": "instance_normalization_145", "trainable": true}, "inbound_nodes": [[["conv2d_209", 0, 0, {}]]]}, {"name": "activation_209", "class_name": "Activation", "config": {"name": "activation_209", "trainable": true, "activation": "relu"}, "inbound_nodes": [[["instance_normalization_145", 0, 0, {}]]]}, {"name": "conv2d_210", "class_name": "Conv2D", "config": {"name": "conv2d_210", "trainable": true, "filters": 128, "kernel_size": [1, 1], "strides": [1, 1], "padding": "same", "data_format": "channels_last", "dilation_rate": [1, 1], "activation": "linear", "use_bias": true, "kernel_initializer": {"class_name": "VarianceScaling", "config": {"scale": 2.0, "mode": "fan_in", "distribution": "normal", "seed": null}}, "bias_initializer": {"class_name": "Zeros", "config": {}}, "kernel_regularizer": null, "bias_regularizer": null, "activity_regularizer": null, "kernel_constraint": null, "bias_constraint": null}, "inbound_nodes": [[["activation_209", 0, 0, {}]]]}, {"name": "global_average_pooling2d_48", "class_name": "GlobalAveragePooling2D", "config": {"name": "global_average_pooling2d_48", "trainable": true, "data_format": "channels_last"}, "inbound_nodes": [[["conv2d_210", 0, 0, {}]]]}, {"name": "reshape_48", "class_name": "Reshape", "config": {"name": "reshape_48", "trainable": true, "target_shape": [1, 1, 128]}, "inbound_nodes": [[["global_average_pooling2d_48", 0, 0, {}]]]}, {"name": "dense_95", "class_name": "Dense", "config": {"name": "dense_95", "trainable": true, "units": 8, "activation": "relu", "use_bias": false, "kernel_initializer": {"class_name": "VarianceScaling", "config": {"scale": 2.0, "mode": "fan_in", "distribution": "normal", "seed": null}}, "bias_initializer": {"class_name": "Zeros", "config": {}}, "kernel_regularizer": null, "bias_regularizer": null, "activity_regularizer": null, "kernel_constraint": null, "bias_constraint": null}, "inbound_nodes": [[["reshape_48", 0, 0, {}]]]}, {"name": "dense_96", "class_name": "Dense", "config": {"name": "dense_96", "trainable": true, "units": 128, "activation": "sigmoid", "use_bias": false, "kernel_initializer": {"class_name": "VarianceScaling", "config": {"scale": 2.0, "mode": "fan_in", "distribution": "normal", "seed": null}}, "bias_initializer": {"class_name": "Zeros", "config": {}}, "kernel_regularizer": null, "bias_regularizer": null, "activity_regularizer": null, "kernel_constraint": null, "bias_constraint": null}, "inbound_nodes": [[["dense_95", 0, 0, {}]]]}, {"name": "multiply_48", "class_name": "Multiply", "config": {"name": "multiply_48", "trainable": true}, "inbound_nodes": [[["conv2d_210", 0, 0, {}], ["dense_96", 0, 0, {}]]]}, {"name": "add_48", "class_name": "Add", "config": {"name": "add_48", "trainable": true}, "inbound_nodes": [[["add_47", 0, 0, {}], ["multiply_48", 0, 0, {}]]]}, {"name": "instance_normalization_146", "class_name": "InstanceNormalization", "config": {"name": "instance_normalization_146", "trainable": true}, "inbound_nodes": [[["add_48", 0, 0, {}]]]}, {"name": "activation_210", "class_name": "Activation", "config": {"name": "activation_210", "trainable": true, "activation": "relu"}, "inbound_nodes": [[["instance_normalization_146", 0, 0, {}]]]}, {"name": "conv2d_211", "class_name": "Conv2D", "config": {"name": "conv2d_211", "trainable": true, "filters": 64, "kernel_size": [1, 1], "strides": [1, 1], "padding": "same", "data_format": "channels_last", "dilation_rate": [1, 1], "activation": "linear", "use_bias": true, "kernel_initializer": {"class_name": "VarianceScaling", "config": {"scale": 2.0, "mode": "fan_in", "distribution": "normal", "seed": null}}, "bias_initializer": {"class_name": "Zeros", "config": {}}, "kernel_regularizer": null, "bias_regularizer": null, "activity_regularizer": null, "kernel_constraint": null, "bias_constraint": null}, "inbound_nodes": [[["activation_210", 0, 0, {}]]]}, {"name": "instance_normalization_147", "class_name": "InstanceNormalization", "config": {"name": "instance_normalization_147", "trainable": true}, "inbound_nodes": [[["conv2d_211", 0, 0, {}]]]}, {"name": "activation_211", "class_name": "Activation", "config": {"name": "activation_211", "trainable": true, "activation": "relu"}, "inbound_nodes": [[["instance_normalization_147", 0, 0, {}]]]}, {"name": "conv2d_212", "class_name": "Conv2D", "config": {"name": "conv2d_212", "trainable": true, "filters": 64, "kernel_size": [3, 3], "strides": [1, 1], "padding": "same", "data_format": "channels_last", "dilation_rate": [1, 1], "activation": "linear", "use_bias": true, "kernel_initializer": {"class_name": "VarianceScaling", "config": {"scale": 2.0, "mode": "fan_in", "distribution": "normal", "seed": null}}, "bias_initializer": {"class_name": "Zeros", "config": {}}, "kernel_regularizer": null, "bias_regularizer": null, "activity_regularizer": null, "kernel_constraint": null, "bias_constraint": null}, "inbound_nodes": [[["activation_211", 0, 0, {}]]]}, {"name": "instance_normalization_148", "class_name": "InstanceNormalization", "config": {"name": "instance_normalization_148", "trainable": true}, "inbound_nodes": [[["conv2d_212", 0, 0, {}]]]}, {"name": "activation_212", "class_name": "Activation", "config": {"name": "activation_212", "trainable": true, "activation": "relu"}, "inbound_nodes": [[["instance_normalization_148", 0, 0, {}]]]}, {"name": "conv2d_213", "class_name": "Conv2D", "config": {"name": "conv2d_213", "trainable": true, "filters": 128, "kernel_size": [1, 1], "strides": [1, 1], "padding": "same", "data_format": "channels_last", "dilation_rate": [1, 1], "activation": "linear", "use_bias": true, "kernel_initializer": {"class_name": "VarianceScaling", "config": {"scale": 2.0, "mode": "fan_in", "distribution": "normal", "seed": null}}, "bias_initializer": {"class_name": "Zeros", "config": {}}, "kernel_regularizer": null, "bias_regularizer": null, "activity_regularizer": null, "kernel_constraint": null, "bias_constraint": null}, "inbound_nodes": [[["activation_212", 0, 0, {}]]]}, {"name": "global_average_pooling2d_49", "class_name": "GlobalAveragePooling2D", "config": {"name": "global_average_pooling2d_49", "trainable": true, "data_format": "channels_last"}, "inbound_nodes": [[["conv2d_213", 0, 0, {}]]]}, {"name": "reshape_49", "class_name": "Reshape", "config": {"name": "reshape_49", "trainable": true, "target_shape": [1, 1, 128]}, "inbound_nodes": [[["global_average_pooling2d_49", 0, 0, {}]]]}, {"name": "dense_97", "class_name": "Dense", "config": {"name": "dense_97", "trainable": true, "units": 8, "activation": "relu", "use_bias": false, "kernel_initializer": {"class_name": "VarianceScaling", "config": {"scale": 2.0, "mode": "fan_in", "distribution": "normal", "seed": null}}, "bias_initializer": {"class_name": "Zeros", "config": {}}, "kernel_regularizer": null, "bias_regularizer": null, "activity_regularizer": null, "kernel_constraint": null, "bias_constraint": null}, "inbound_nodes": [[["reshape_49", 0, 0, {}]]]}, {"name": "dense_98", "class_name": "Dense", "config": {"name": "dense_98", "trainable": true, "units": 128, "activation": "sigmoid", "use_bias": false, "kernel_initializer": {"class_name": "VarianceScaling", "config": {"scale": 2.0, "mode": "fan_in", "distribution": "normal", "seed": null}}, "bias_initializer": {"class_name": "Zeros", "config": {}}, "kernel_regularizer": null, "bias_regularizer": null, "activity_regularizer": null, "kernel_constraint": null, "bias_constraint": null}, "inbound_nodes": [[["dense_97", 0, 0, {}]]]}, {"name": "multiply_49", "class_name": "Multiply", "config": {"name": "multiply_49", "trainable": true}, "inbound_nodes": [[["conv2d_213", 0, 0, {}], ["dense_98", 0, 0, {}]]]}, {"name": "add_49", "class_name": "Add", "config": {"name": "add_49", "trainable": true}, "inbound_nodes": [[["add_48", 0, 0, {}], ["multiply_49", 0, 0, {}]]]}, {"name": "instance_normalization_149", "class_name": "InstanceNormalization", "config": {"name": "instance_normalization_149", "trainable": true}, "inbound_nodes": [[["add_49", 0, 0, {}]]]}, {"name": "activation_213", "class_name": "Activation", "config": {"name": "activation_213", "trainable": true, "activation": "relu"}, "inbound_nodes": [[["instance_normalization_149", 0, 0, {}]]]}, {"name": "conv2d_214", "class_name": "Conv2D", "config": {"name": "conv2d_214", "trainable": true, "filters": 64, "kernel_size": [1, 1], "strides": [1, 1], "padding": "same", "data_format": "channels_last", "dilation_rate": [1, 1], "activation": "linear", "use_bias": true, "kernel_initializer": {"class_name": "VarianceScaling", "config": {"scale": 2.0, "mode": "fan_in", "distribution": "normal", "seed": null}}, "bias_initializer": {"class_name": "Zeros", "config": {}}, "kernel_regularizer": null, "bias_regularizer": null, "activity_regularizer": null, "kernel_constraint": null, "bias_constraint": null}, "inbound_nodes": [[["activation_213", 0, 0, {}]]]}, {"name": "instance_normalization_150", "class_name": "InstanceNormalization", "config": {"name": "instance_normalization_150", "trainable": true}, "inbound_nodes": [[["conv2d_214", 0, 0, {}]]]}, {"name": "activation_214", "class_name": "Activation", "config": {"name": "activation_214", "trainable": true, "activation": "relu"}, "inbound_nodes": [[["instance_normalization_150", 0, 0, {}]]]}, {"name": "conv2d_215", "class_name": "Conv2D", "config": {"name": "conv2d_215", "trainable": true, "filters": 64, "kernel_size": [3, 3], "strides": [1, 1], "padding": "same", "data_format": "channels_last", "dilation_rate": [1, 1], "activation": "linear", "use_bias": true, "kernel_initializer": {"class_name": "VarianceScaling", "config": {"scale": 2.0, "mode": "fan_in", "distribution": "normal", "seed": null}}, "bias_initializer": {"class_name": "Zeros", "config": {}}, "kernel_regularizer": null, "bias_regularizer": null, "activity_regularizer": null, "kernel_constraint": null, "bias_constraint": null}, "inbound_nodes": [[["activation_214", 0, 0, {}]]]}, {"name": "instance_normalization_151", "class_name": "InstanceNormalization", "config": {"name": "instance_normalization_151", "trainable": true}, "inbound_nodes": [[["conv2d_215", 0, 0, {}]]]}, {"name": "activation_215", "class_name": "Activation", "config": {"name": "activation_215", "trainable": true, "activation": "relu"}, "inbound_nodes": [[["instance_normalization_151", 0, 0, {}]]]}, {"name": "conv2d_216", "class_name": "Conv2D", "config": {"name": "conv2d_216", "trainable": true, "filters": 128, "kernel_size": [1, 1], "strides": [1, 1], "padding": "same", "data_format": "channels_last", "dilation_rate": [1, 1], "activation": "linear", "use_bias": true, "kernel_initializer": {"class_name": "VarianceScaling", "config": {"scale": 2.0, "mode": "fan_in", "distribution": "normal", "seed": null}}, "bias_initializer": {"class_name": "Zeros", "config": {}}, "kernel_regularizer": null, "bias_regularizer": null, "activity_regularizer": null, "kernel_constraint": null, "bias_constraint": null}, "inbound_nodes": [[["activation_215", 0, 0, {}]]]}, {"name": "global_average_pooling2d_50", "class_name": "GlobalAveragePooling2D", "config": {"name": "global_average_pooling2d_50", "trainable": true, "data_format": "channels_last"}, "inbound_nodes": [[["conv2d_216", 0, 0, {}]]]}, {"name": "reshape_50", "class_name": "Reshape", "config": {"name": "reshape_50", "trainable": true, "target_shape": [1, 1, 128]}, "inbound_nodes": [[["global_average_pooling2d_50", 0, 0, {}]]]}, {"name": "dense_99", "class_name": "Dense", "config": {"name": "dense_99", "trainable": true, "units": 8, "activation": "relu", "use_bias": false, "kernel_initializer": {"class_name": "VarianceScaling", "config": {"scale": 2.0, "mode": "fan_in", "distribution": "normal", "seed": null}}, "bias_initializer": {"class_name": "Zeros", "config": {}}, "kernel_regularizer": null, "bias_regularizer": null, "activity_regularizer": null, "kernel_constraint": null, "bias_constraint": null}, "inbound_nodes": [[["reshape_50", 0, 0, {}]]]}, {"name": "dense_100", "class_name": "Dense", "config": {"name": "dense_100", "trainable": true, "units": 128, "activation": "sigmoid", "use_bias": false, "kernel_initializer": {"class_name": "VarianceScaling", "config": {"scale": 2.0, "mode": "fan_in", "distribution": "normal", "seed": null}}, "bias_initializer": {"class_name": "Zeros", "config": {}}, "kernel_regularizer": null, "bias_regularizer": null, "activity_regularizer": null, "kernel_constraint": null, "bias_constraint": null}, "inbound_nodes": [[["dense_99", 0, 0, {}]]]}, {"name": "multiply_50", "class_name": "Multiply", "config": {"name": "multiply_50", "trainable": true}, "inbound_nodes": [[["conv2d_216", 0, 0, {}], ["dense_100", 0, 0, {}]]]}, {"name": "add_50", "class_name": "Add", "config": {"name": "add_50", "trainable": true}, "inbound_nodes": [[["add_49", 0, 0, {}], ["multiply_50", 0, 0, {}]]]}, {"name": "instance_normalization_152", "class_name": "InstanceNormalization", "config": {"name": "instance_normalization_152", "trainable": true}, "inbound_nodes": [[["add_50", 0, 0, {}]]]}, {"name": "activation_216", "class_name": "Activation", "config": {"name": "activation_216", "trainable": true, "activation": "relu"}, "inbound_nodes": [[["instance_normalization_152", 0, 0, {}]]]}, {"name": "conv2d_217", "class_name": "Conv2D", "config": {"name": "conv2d_217", "trainable": true, "filters": 1, "kernel_size": [1, 1], "strides": [1, 1], "padding": "same", "data_format": "channels_last", "dilation_rate": [1, 1], "activation": "linear", "use_bias": true, "kernel_initializer": {"class_name": "VarianceScaling", "config": {"scale": 2.0, "mode": "fan_in", "distribution": "normal", "seed": null}}, "bias_initializer": {"class_name": "Zeros", "config": {}}, "kernel_regularizer": null, "bias_regularizer": null, "activity_regularizer": null, "kernel_constraint": null, "bias_constraint": null}, "inbound_nodes": [[["activation_216", 0, 0, {}]]]}, {"name": "activation_217", "class_name": "Activation", "config": {"name": "activation_217", "trainable": true, "activation": "sigmoid"}, "inbound_nodes": [[["conv2d_217", 0, 0, {}]]]}], "input_layers": [["input_1", 0, 0]], "output_layers": [["activation_217", 0, 0]]}, "keras_version": "2.1.6", "backend": "tensorflow"}